ml/src/main/assets/emotion_recognition.tflite (tflite, 421160 bytes, 12 tensors)

arith.constant5 f2 [32]
000000 00 00 00 00 00 00 00 00 00 00 00 00 00 00 00 00
       0.0 0.0 0.0 0.0 0.0 0.0 0.0 0.0
000010 00 00 00 00 00 00 00 00 00 00 00 00 00 00 00 00
       0.0 0.0 0.0 0.0 0.0 0.0 0.0 0.0
000020 00 00 00 00 00 00 00 00 00 00 00 00 00 00 00 00
       0.0 0.0 0.0 0.0 0.0 0.0 0.0 0.0
000030 00 00 00 00 00 00 00 00 00 00 00 00 00 00 00 00
       0.0 0.0 0.0 0.0 0.0 0.0 0.0 0.0

arith.constant6 f2 [64]
000000 00 00 00 00 00 00 00 00 00 00 00 00 00 00 00 00
       0.0 0.0 0.0 0.0 0.0 0.0 0.0 0.0
000010 00 00 00 00 00 00 00 00 00 00 00 00 00 00 00 00
       0.0 0.0 0.0 0.0 0.0 0.0 0.0 0.0
000020 00 00 00 00 00 00 00 00 00 00 00 00 00 00 00 00
       0.0 0.0 0.0 0.0 0.0 0.0 0.0 0.0
000030 00 00 00 00 00 00 00 00 00 00 00 00 00 00 00 00
       0.0 0.0 0.0 0.0 0.0 0.0 0.0 0.0
000040 00 00 00 00 00 00 00 00 00 00 00 00 00 00 00 00
       0.0 0.0 0.0 0.0 0.0 0.0 0.0 0.0
000050 00 00 00 00 00 00 00 00 00 00 00 00 00 00 00 00
       0.0 0.0 0.0 0.0 0.0 0.0 0.0 0.0
000060 00 00 00 00 00 00 00 00 00 00 00 00 00 00 00 00
       0.0 0.0 0.0 0.0 0.0 0.0 0.0 0.0
000070 00 00 00 00 00 00 00 00 00 00 00 00 00 00 00 00
       0.0 0.0 0.0 0.0 0.0 0.0 0.0 0.0

arith.constant7 f2 [128]
000000 00 00 00 00 00 00 00 00 00 00 00 00 00 00 00 00
       0.0 0.0 0.0 0.0 0.0 0.0 0.0 0.0
000010 00 00 00 00 00 00 00 00 00 00 00 00 00 00 00 00
       0.0 0.0 0.0 0.0 0.0 0.0 0.0 0.0
000020 00 00 00 00 00 00 00 00 00 00 00 00 00 00 00 00
       0.0 0.0 0.0 0.0 0.0 0.0 0.0 0.0
000030 00 00 00 00 00 00 00 00 00 00 00 00 00 00 00 00
       0.0 0.0 0.0 0.0 0.0 0.0 0.0 0.0
000040 00 00 00 00 00 00 00 00 00 00 00 00 00 00 00 00
       0.0 0.0 0.0 0.0 0.0 0.0 0.0 0.0
000050 00 00 00 00 00 00 00 00 00 00 00 00 00 00 00 00
       0.0 0.0 0.0 0.0 0.0 0.0 0.0 0.0
000060 00 00 00 00 00 00 00 00 00 00 00 00 00 00 00 00
       0.0 0.0 0.0 0.0 0.0 0.0 0.0 0.0
000070 00 00 00 00 00 00 00 00 00 00 00 00 00 00 00 00
       0.0 0.0 0.0 0.0 0.0 0.0 0.0 0.0
000080 00 00 00 00 00 00 00 00 00 00 00 00 00 00 00 00
       0.0 0.0 0.0 0.0 0.0 0.0 0.0 0.0
000090 00 00 00 00 00 00 00 00 00 00 00 00 00 00 00 00
       0.0 0.0 0.0 0.0 0.0 0.0 0.0 0.0
0000a0 00 00 00 00 00 00 00 00 00 00 00 00 00 00 00 00
       0.0 0.0 0.0 0.0 0.0 0.0 0.0 0.0
0000b0 00 00 00 00 00 00 00 00 00 00 00 00 00 00 00 00
       0.0 0.0 0.0 0.0 0.0 0.0 0.0 0.0
0000c0 00 00 00 00 00 00 00 00 00 00 00 00 00 00 00 00
       0.0 0.0 0.0 0.0 0.0 0.0 0.0 0.0
0000d0 00 00 00 00 00 00 00 00 00 00 00 00 00 00 00 00
       0.0 0.0 0.0 0.0 0.0 0.0 0.0 0.0
0000e0 00 00 00 00 00 00 00 00 00 00 00 00 00 00 00 00
       0.0 0.0 0.0 0.0 0.0 0.0 0.0 0.0
0000f0 00 00 00 00 00 00 00 00 00 00 00 00 00 00 00 00
       0.0 0.0 0.0 0.0 0.0 0.0 0.0 0.0

arith.constant8 f2 [32]
000000 ff 3b ff 3b ff 3b ff 3b ff 3b ff 3b ff 3b ff 3b
       0.9995 0.9995 0.9995 0.9995 0.9995 0.9995 0.9995 0.9995
000010 ff 3b ff 3b ff 3b ff 3b ff 3b ff 3b ff 3b ff 3b
       0.9995 0.9995 0.9995 0.9995 0.9995 0.9995 0.9995 0.9995
000020 ff 3b ff 3b ff 3b ff 3b ff 3b ff 3b ff 3b ff 3b
       0.9995 0.9995 0.9995 0.9995 0.9995 0.9995 0.9995 0.9995
000030 ff 3b ff 3b ff 3b ff 3b ff 3b ff 3b ff 3b ff 3b
       0.9995 0.9995 0.9995 0.9995 0.9995 0.9995 0.9995 0.9995

arith.constant9 f2 [64]
000000 ff 3b ff 3b ff 3b ff 3b ff 3b ff 3b ff 3b ff 3b
       0.9995 0.9995 0.9995 0.9995 0.9995 0.9995 0.9995 0.9995
000010 ff 3b ff 3b ff 3b ff 3b ff 3b ff 3b ff 3b ff 3b
       0.9995 0.9995 0.9995 0.9995 0.9995 0.9995 0.9995 0.9995
000020 ff 3b ff 3b ff 3b ff 3b ff 3b ff 3b ff 3b ff 3b
       0.9995 0.9995 0.9995 0.9995 0.9995 0.9995 0.9995 0.9995
000030 ff 3b ff 3b ff 3b ff 3b ff 3b ff 3b ff 3b ff 3b
       0.9995 0.9995 0.9995 0.9995 0.9995 0.9995 0.9995 0.9995
000040 ff 3b ff 3b ff 3b ff 3b ff 3b ff 3b ff 3b ff 3b
       0.9995 0.9995 0.9995 0.9995 0.9995 0.9995 0.9995 0.9995
000050 ff 3b ff 3b ff 3b ff 3b ff 3b ff 3b ff 3b ff 3b
       0.9995 0.9995 0.9995 0.9995 0.9995 0.9995 0.9995 0.9995
000060 ff 3b ff 3b ff 3b ff 3b ff 3b ff 3b ff 3b ff 3b
       0.9995 0.9995 0.9995 0.9995 0.9995 0.9995 0.9995 0.9995
000070 ff 3b ff 3b ff 3b ff 3b ff 3b ff 3b ff 3b ff 3b
       0.9995 0.9995 0.9995 0.9995 0.9995 0.9995 0.9995 0.9995

arith.constant10 f2 [128]
000000 ff 3b ff 3b ff 3b ff 3b ff 3b ff 3b ff 3b ff 3b
       0.9995 0.9995 0.9995 0.9995 0.9995 0.9995 0.9995 0.9995
000010 ff 3b ff 3b ff 3b ff 3b ff 3b ff 3b ff 3b ff 3b
       0.9995 0.9995 0.9995 0.9995 0.9995 0.9995 0.9995 0.9995
000020 ff 3b ff 3b ff 3b ff 3b ff 3b ff 3b ff 3b ff 3b
       0.9995 0.9995 0.9995 0.9995 0.9995 0.9995 0.9995 0.9995
000030 ff 3b ff 3b ff 3b ff 3b ff 3b ff 3b ff 3b ff 3b
       0.9995 0.9995 0.9995 0.9995 0.9995 0.9995 0.9995 0.9995
000040 ff 3b ff 3b ff 3b ff 3b ff 3b ff 3b ff 3b ff 3b
       0.9995 0.9995 0.9995 0.9995 0.9995 0.9995 0.9995 0.9995
000050 ff 3b ff 3b ff 3b ff 3b ff 3b ff 3b ff 3b ff 3b
       0.9995 0.9995 0.9995 0.9995 0.9995 0.9995 0.9995 0.9995
000060 ff 3b ff 3b ff 3b ff 3b ff 3b ff 3b ff 3b ff 3b
       0.9995 0.9995 0.9995 0.9995 0.9995 0.9995 0.9995 0.9995
000070 ff 3b ff 3b ff 3b ff 3b ff 3b ff 3b ff 3b ff 3b
       0.9995 0.9995 0.9995 0.9995 0.9995 0.9995 0.9995 0.9995
000080 ff 3b ff 3b ff 3b ff 3b ff 3b ff 3b ff 3b ff 3b
       0.9995 0.9995 0.9995 0.9995 0.9995 0.9995 0.9995 0.9995
000090 ff 3b ff 3b ff 3b ff 3b ff 3b ff 3b ff 3b ff 3b
       0.9995 0.9995 0.9995 0.9995 0.9995 0.9995 0.9995 0.9995
0000a0 ff 3b ff 3b ff 3b ff 3b ff 3b ff 3b ff 3b ff 3b
       0.9995 0.9995 0.9995 0.9995 0.9995 0.9995 0.9995 0.9995
0000b0 ff 3b ff 3b ff 3b ff 3b ff 3b ff 3b ff 3b ff 3b
       0.9995 0.9995 0.9995 0.9995 0.9995 0.9995 0.9995 0.9995
0000c0 ff 3b ff 3b ff 3b ff 3b ff 3b ff 3b ff 3b ff 3b
       0.9995 0.9995 0.9995 0.9995 0.9995 0.9995 0.9995 0.9995
0000d0 ff 3b ff 3b ff 3b ff 3b ff 3b ff 3b ff 3b ff 3b
       0.9995 0.9995 0.9995 0.9995 0.9995 0.9995 0.9995 0.9995
0000e0 ff 3b ff 3b ff 3b ff 3b ff 3b ff 3b ff 3b ff 3b
       0.9995 0.9995 0.9995 0.9995 0.9995 0.9995 0.9995 0.9995
0000f0 ff 3b ff 3b ff 3b ff 3b ff 3b ff 3b ff 3b ff 3b
       0.9995 0.9995 0.9995 0.9995 0.9995 0.9995 0.9995 0.9995

arith.constant11 f2 [128, 128]
000000 19 ab 82 ac e9 af 52 b0 5d 30 6b a9 cf 2d 4c af
       -0.05545 -0.07043 -0.1236 -0.135 0.1364 -0.04233 0.09076 -0.114
000010 9a 2d cb ad 0f 2c 3b 25 cd 2f 79 ad c7 ac e4 ad
       0.0875 -0.0905 0.0634 0.02043 0.1219 -0.0855 -0.07465 -0.09204
000020 84 a5 77 2e b2 ad d3 2d 70 2e 99 29 f8 2e 3e 29
       -0.02155 0.101 -0.089 0.091 0.1006 0.04373 0.1089 0.04095
000030 9c 2c 4a 28 5e ac b0 a4 da 1e 53 27 d7 2f 0a ad
       0.072 0.0335 -0.06824 -0.01831 0.00669 0.02861 0.1225 -0.07874
000040 60 ac 67 af 19 ac 11 a6 01 2c 57 2f 0d ad db 99
       -0.06836 -0.11566 -0.064 -0.0237 0.06256 0.1147 -0.0789 -0.00286
000050 40 2e 7c 2e 58 aa 87 30 eb 2c 19 1d eb 2f 00 aa
       0.09766 0.1013 -0.04956 0.1415 0.07684 0.00498 0.1237 -0.04688
000060 51 2b 5a b0 4b 24 cc 29 b5 ab 2e b0 21 ac 68 20
       0.05716 -0.136 0.01677 0.0453 -0.0602 -0.1306 -0.0645 0.008606
000070 49 b0 be 30 ee ad f9 ac 62 26 60 2c 13 24 28 2e
       -0.1339 0.1482 -0.09265 -0.0777 0.02493 0.06836 0.01591 0.0962
000080 e1 30 39 30 c2 2a b4 ad 9b 2d fb 2c aa 2e cf ad
       0.1525 0.132 0.0528 -0.0891 0.0876 0.0778 0.1041 -0.09076
000090 4b 9e 06 2f 77 2e 8a 28 9b a8 1b ac b7 ab 6a a6
       -0.006145 0.10974 0.101 0.03546 -0.03598 -0.06415 -0.06027 -0.02505
0000a0 0e 28 a6 2e a9 ad 46 b0 03 2c 33 2f 42 2f 9c 95
       0.03168 0.1039 -0.08844 -0.1335 0.0627 0.1125 0.1134 -0.001369
0000b0 7b 2f ca a5 7d 2e 68 2a 45 30 ad 2a 69 ab 51 2f
       0.1169 -0.02261 0.1014 0.05005 0.1334 0.05215 -0.0579 0.1143
0000c0 79 2d 37 2d 0d 2e a2 b0 20 af 6c 2d 4f ad 5e 2e
       0.0855 0.0815 0.09454 -0.1448 -0.1113 0.0847 -0.08295 0.0995
0000d0 c0 26 4a 24 5f af 9a a5 f1 2c 6f 2c 7a 2e f8 af
       0.02637 0.01675 -0.1152 -0.02188 0.0772 0.0693 0.1012 -0.1245
0000e0 4b b0 80 2c 34 ae f0 28 ae b0 24 29 2d 30 71 2f
       -0.1342 0.0703 -0.0969 0.03857 -0.1462 0.04016 0.1305 0.1163
0000f0 32 b0 6a b0 8b a8 c7 aa ef 1e cf a7 ac b0 48 24
       -0.1311 -0.138 -0.0355 -0.05295 0.00677 -0.0305 -0.146 0.01672
000100 8c ab d9 ac 49 2d 3b 30 11 2f a4 30 19 26 b3 30
       -0.05896 -0.07574 0.0826 0.1322 0.1104 0.145 0.02382 0.1469
000110 62 2f 52 b0 fb a8 5b 29 f4 a4 65 a8 99 23 f1 21
       0.11536 -0.135 -0.0389 0.04184 -0.01935 -0.03433 0.01484 0.011604
000120 63 28 1c 30 ec ac b9 2e eb 2d 04 a0 01 2c fa a9
       0.03427 0.1284 -0.0769 0.10504 0.09247 -0.00784 0.06256 -0.0467
000130 73 2a d5 25 8a b0 3c b0 c2 27 49 2b 7d a3 a1 2c
       0.05038 0.02278 -0.1418 -0.1323 0.0303 0.05692 -0.014626 0.0723
000140 c7 2c e2 2d 2a a2 71 24 f2 ac f9 28 4d 21 94 af
       0.07465 0.0919 -0.01204 0.01735 -0.0773 0.03885 0.01035 -0.1184
000150 e5 ad 20 a5 11 b0 83 a7 cc ae 36 b0 0b 30 55 ad
       -0.0921 -0.02002 -0.1271 -0.02934 -0.1062 -0.1316 0.1263 -0.0833
000160 4e a8 4d af 76 2e 5e 30 bd a5 15 a8 05 b0 b5 b0
       -0.03363 -0.1141 0.10095 0.1365 -0.02242 -0.0319 -0.1256 -0.1471
000170 06 20 2f a2 30 ac 5e b0 fc 2c 76 28 f1 ad bc 1b
       0.00786 -0.01208 -0.0654 -0.1365 0.0779 0.03485 -0.09283 0.003777
000180 0f a5 2c 2d 4d 30 c8 2e ec 2f d0 af 89 2d 06 2c
       -0.01976 0.0808 0.1344 0.10596 0.1238 -0.1221 0.0865 0.06287
000190 4c 98 e7 98 51 30 36 a4 9f 1e 46 30 94 2e eb a9
       -0.002098 -0.002394 0.1349 -0.01645 0.006466 0.1335 0.1028 -0.04623
0001a0 47 93 dc 30 de 28 87 aa 12 2f c4 2b c1 2d 98 b0
       -0.0008883 0.1519 0.03802 -0.051 0.1105 0.06067 0.0899 -0.1436
0001b0 da 2f 22 28 f1 2e 77 30 e3 ae 02 21 fe 2a 01 a9
       0.1227 0.0323 0.10846 0.1395 -0.1076 0.00978 0.05463 -0.0391
0001c0 df 1d b3 a9 29 ac 5e af 98 2f ac 2d 4d 2f 36 af
       0.005733 -0.04453 -0.065 -0.1151 0.11865 0.0886 0.1141 -0.1127
0001d0 0f af 81 ab 53 b0 38 30 52 2a 3a 23 2f ad 06 2d
       -0.1103 -0.05862 -0.1351 0.1318 0.04938 0.014114 -0.081 0.0785
0001e0 18 2f 8f ab 2b a7 95 b0 96 2b 00 9c 62 b0 da 2a
       0.11084 -0.05905 -0.028 -0.1432 0.05927 -0.003906 -0.137 0.05353
0001f0 65 ac 53 2f 93 b0 67 2e 6e 26 60 af 8e 27 c3 a7
       -0.06866 0.11444 -0.143 0.10004 0.02512 -0.11523 0.02951 -0.03032

arith.constant12 f2 [7, 128]
000000 a9 9e fa ac 5c b0 4f a6 b1 ae 67 32 2a 32 17 30
       -0.006504 -0.07776 -0.1362 -0.02464 -0.10455 0.2001 0.1926 0.1278
000010 93 b0 97 b2 82 a5 fd 9e 59 a1 6a 2f 54 2c c2 2b
       -0.143 -0.2059 -0.02151 -0.006824 -0.010445 0.11584 0.0676 0.0606
000020 f6 30 5c 30 24 2b f4 ad 10 b1 22 ae 13 2b 18 32
       0.155 0.1362 0.0558 -0.093 -0.1582 -0.0958 0.05527 0.1904
000030 f2 ac 89 27 db b0 d9 ac f9 2b bc af b1 2c d4 31
       -0.0773 0.02943 -0.1517 -0.07574 0.0623 -0.12085 0.0733 0.1821
000040 74 b1 ac 2e 10 a9 c7 92 fe ae e6 b1 05 30 c2 af
       -0.1704 0.10425 -0.03955 -0.0008273 -0.10925 -0.1843 0.1256 -0.1212
000050 c1 b0 11 ad 51 b0 99 ab e8 2d 70 32 63 a7 cb aa
       -0.1486 -0.07916 -0.1349 -0.05936 0.0923 0.2012 -0.02885 -0.05307
000060 7c a8 bb 30 fd af a4 b0 bf 31 0c 1d 5a 31 8f aa
       -0.03503 0.1478 -0.1248 -0.145 0.1796 0.00493 0.1672 -0.05124
000070 bb b0 9b a2 79 31 71 31 1f 2a bb ae c9 ab 1f ac
       -0.1478 -0.0129 0.171 0.17 0.04782 -0.10516 -0.06082 -0.0644
000080 d9 2d 82 27 ef 31 dc 31 ce b0 c9 31 7d b2 b0 32
       0.0914 0.02933 0.1854 0.1831 -0.1501 0.1808 -0.2028 0.209
000090 0f b2 ed b1 ca a6 bf 29 5e 1d e3 26 99 32 e2 30
       -0.1893 -0.1852 -0.02652 0.0449 0.00524 0.0269 0.2062 0.1526
0000a0 0f b1 59 31 51 a9 fa 27 2a 2f ad b1 06 b1 21 93
       -0.1581 0.1671 -0.04153 0.03116 0.11194 -0.1774 -0.157 -0.00087
0000b0 a2 32 70 af 22 b1 32 ac 61 af 3e b1 4e b0 c3 af
       0.2073 -0.1162 -0.1604 -0.06555 -0.1153 -0.1638 -0.1345 -0.1213
0000c0 05 96 04 30 fa 31 2c 31 72 a4 97 31 47 b1 8d b2
       -0.00147 0.1255 0.1868 0.1616 -0.01736 0.1747 -0.1649 -0.2047
0000d0 42 b0 6d ac e9 ac bf 2d 66 a7 24 a8 99 b1 db af
       -0.133 -0.06915 -0.0767 0.0898 -0.0289 -0.03235 -0.1749 -0.12274
0000e0 f2 2e 1d 31 27 29 0e a9 f1 af ba 2d 9e 31 94 ae
       0.1085 0.1598 0.04025 -0.0395 -0.1241 0.0895 0.1755 -0.1028
0000f0 a4 31 c3 2e 53 ac 62 b1 f9 b1 42 28 f1 2d 04 a7
       0.1763 0.10565 -0.06757 -0.1682 -0.1866 0.03326 0.09283 -0.0274
000100 20 b0 2a 2c 68 32 0e 2c 98 b0 74 32 3e 2a 81 b2
       -0.1289 0.06506 0.2002 0.06335 -0.1436 0.2017 0.04877 -0.2032
000110 4e 31 1f a5 e4 30 85 aa 96 b2 2e 30 48 a6 77 b2
       0.1658 -0.02 0.1528 -0.05093 -0.2058 0.1306 -0.02454 -0.202
000120 b2 aa a7 ae 9d 32 80 32 63 31 4e ae 8b 2a c0 30
       -0.0523 -0.10394 0.2067 0.2031 0.1683 -0.0985 0.05112 0.1484
000130 75 b2 a8 32 5b ae 26 22 07 2d b5 32 40 31 d3 2e
       -0.2018 0.208 -0.0993 0.01201 0.07855 0.2096 0.1641 0.1066
000140 40 b1 6f ad 66 b0 00 af 7e b2 ea 2d 4a b2 41 a6
       -0.1641 -0.0849 -0.1375 -0.1094 -0.2029 0.0924 -0.1965 -0.02443
000150 1a 2c 40 31 98 b2 11 a9 1a 2e 2d 32 c2 2a 10 24
       0.0641 0.1641 -0.206 -0.03958 0.09534 0.193 0.0528 0.01587
000160 bf a6 d5 97 d2 a4 a1 32 44 30 2a ae 36 af f0 31
       -0.02635 -0.001912 -0.01883 0.2072 0.1333 -0.0963 -0.1127 0.1855
000170 d2 31 ad af b4 b2 50 31 63 b2 83 b0 31 af 04 9e
       0.1819 -0.11993 -0.2095 0.166 -0.1996 -0.141 -0.11237 -0.005875
000180 9c ac 74 b0 53 1e c4 2b 8a 31 14 31 43 2c 48 ae
       -0.072 -0.1392 0.006176 0.06067 0.1731 0.1587 0.0666 -0.09814
000190 98 b0 04 27 d5 2e 2c b2 0d b1 1d 32 30 9b 1a 2f
       -0.1436 0.0274 0.10675 -0.1929 -0.1578 0.191 -0.00351 0.11096
0001a0 bd 22 ce 2e f7 ae 6b b2 b5 95 56 29 4e 28 23 2c
       0.01316 0.1063 -0.1088 -0.2006 -0.001393 0.0417 0.03363 0.06464
0001b0 9c 28 ac b0 63 a3 2d 32 21 b1 88 b2 e2 a9 83 32
       0.036 -0.146 -0.01443 0.193 -0.1603 -0.2041 -0.04596 0.2035
0001c0 0e b0 ab b1 f8 9d 0e 30 b0 32 0d 32 77 2a cb 30
       -0.1267 -0.1771 -0.00583 0.1267 0.209 0.1891 0.0505 0.1498
0001d0 a9 ab 8f 30 8a 2c 39 b2 b8 b2 30 30 33 af 4e 32
       -0.05984 0.1425 0.0709 -0.1945 -0.21 0.1309 -0.1125 0.197
0001e0 3f b0 13 b0 06 9d be ab 03 2e d7 30 88 28 1b 2b
       -0.1327 -0.1273 -0.004906 -0.0605 0.09393 0.1512 0.0354 0.0555
0001f0 d3 9c dc ad e2 b0 c9 9d a3 31 8a ad 27 ac 44 b1
       -0.00471 -0.09155 -0.1526 -0.00565 0.1761 -0.08655 -0.0649 -0.1646

arith.constant13 f2 [32, 1, 7, 1]
000000 ef 0d 3b ad ba 2d db a0 b4 2a 84 2b 2a 2b 5e a8
       0.0003622 -0.0817 0.0895 -0.00948 0.05237 0.05872 0.05597 -0.03412
000010 1e 30 13 28 40 2f 2d a9 af ae a6 30 b3 2d 94 2c
       0.1287 0.03183 0.1133 -0.04044 -0.10443 0.1453 0.08905 0.07153
000020 3b ad aa ac 25 30 0e 30 4c 30 86 9f 6a 28 20 ac
       -0.0817 -0.0729 0.1295 0.1267 0.1343 -0.007347 0.0345 -0.06445
000030 bf 24 ec 2f be 23 22 31 cc a3 f6 b0 a6 a9 d5 ab
       0.01854 0.1238 0.01512 0.1604 -0.01523 -0.155 -0.04413 -0.0612
000040 74 26 72 2f 0f 31 5b af 2b 2a 39 30 fa af fb a8
       0.0252 0.11633 0.1581 -0.1149 0.0482 0.132 -0.12463 -0.0389
000050 6a 22 07 ad 8e a6 1c 31 05 31 19 2f 42 23 56 a8
       0.01253 -0.07855 -0.0256 0.1597 0.1569 0.1109 0.014175 -0.03387
000060 eb a8 f5 9d ef 24 15 29 53 a8 98 ae 35 ab cc 2a
       -0.03842 -0.005817 0.01927 0.0397 -0.03378 -0.103 -0.0563 0.0531
000070 54 2c 9f 28 3d 2f 14 31 91 af b1 af 76 21 6d 2a
       0.0676 0.0361 0.1131 0.1587 -0.1182 -0.1202 0.010666 0.0502
000080 af ad 7c 29 b0 aa 44 2f d2 b0 a9 2e d2 ab 90 2b
       -0.0888 0.04285 -0.05225 0.1135 -0.1506 0.10406 -0.0611 0.05908
000090 37 a8 92 30 3b 2e 1b b1 38 b0 d9 30 f7 2c a5 2c
       -0.03293 0.1428 0.09735 -0.1595 -0.1318 0.1515 0.0776 0.0726
0000a0 42 a3 44 ad ba af 4d 24 91 af 10 aa 72 22 a4 af
       -0.014175 -0.0823 -0.1207 0.0168 -0.1182 -0.04736 0.01259 -0.1194
0000b0 e8 a7 ce b0 bb 25 d2 ac 27 2f f9 2b 0a 30 ee 2d
       -0.03088 -0.1501 0.02238 -0.0753 0.11176 0.0623 0.1262 0.09265
0000c0 11 a1 55 20 ab ad c4 ae c3 af 71 ad 3a aa f0 ad
       -0.009895 0.00846 -0.08856 -0.1057 -0.1213 -0.085 -0.04865 -0.0928
0000d0 96 2f 40 af 31 30 7a a2 db 2d ea ad b4 b0 78 af
       0.1185 -0.1133 0.131 -0.01265 0.0915 -0.0924 -0.147 -0.1167
0000e0 61 ac 69 29 09 2b ff 30 45 27 e3 28 18 aa 64 25
       -0.0684 0.04227 0.05496 0.1561 0.0284 0.03818 -0.0476 0.02106
0000f0 b4 ae 54 2c ee 2f 84 ac 6b 2b 06 b1 c7 2c 52 2e
       -0.10474 0.0676 0.1239 -0.07056 0.05795 -0.157 0.07465 0.09875
000100 b1 ab d2 26 34 2d 86 30 91 af c4 2c 7a b0 3e 25
       -0.0601 0.02664 0.0813 0.1414 -0.1182 0.07446 -0.1399 0.02048
000110 26 2d 1a 2a 07 aa 90 20 ab 22 eb af ab b0 45 b0
       0.08044 0.04767 -0.0471 0.00891 0.01302 -0.1237 -0.1459 -0.1334
000120 78 aa d4 24 f9 ad 19 2c 11 b1 8a ac 0c 30 7d b0
       -0.05054 0.01886 -0.0933 0.064 -0.1583 -0.0709 0.1265 -0.1403
000130 f8 88 17 a2 bb 2f b2 a9 1e 1d b6 2c aa 9d a8 aa
       -0.0001516 -0.011894 0.1208 -0.0445 0.004997 0.0736 -0.00553 -0.052
000140 c4 30 75 b0 ce a1 7e af 49 af b9 b0 39 29 b0 af
       0.1489 -0.1393 -0.01134 -0.11707 -0.11383 -0.1476 0.0408 -0.1201
000150 7e b0 1b 2b 00 30 ee ac 72 2d 6a a4 2a 9e 12 a3
       -0.1404 0.0555 0.125 -0.077 0.0851 -0.01724 -0.00602 -0.01381
000160 61 af 1c b0 34 af 95 ad eb b0 ba 2d ef 2b 82 b0
       -0.1153 -0.1284 -0.11255 -0.0872 -0.1537 0.0895 0.06198 -0.1409
000170 71 26 1f 2b 6e 2c fe 2c 76 29 70 2d ce ad 3e 2f
       0.02516 0.05563 0.0692 0.078 0.04266 0.08496 -0.0907 0.11316
000180 c2 28 d4 b0 24 30 d5 29 12 2f 78 2e 6d 2e 79 a9
       0.03717 -0.1509 0.1294 0.04556 0.1105 0.1011 0.1004 -0.04276
000190 14 25 a0 29 ff 2a 75 2f de ad c0 29 e1 30 78 2a
       0.01984 0.04395 0.05466 0.1165 -0.0917 0.04492 0.1525 0.05054
0001a0 bc ac 71 2c a3 a9 23 2f 37 a8 5b a2 c5 14 3f 2d
       -0.074 0.0694 -0.04404 0.1115 -0.03293 -0.01241 0.001164 0.082
0001b0 b2 2a 07 a8 6b 29 bd 30 93 29 66 b0 99 a6 2c aa
       0.0523 -0.03146 0.04233 0.1481 0.04355 -0.1375 -0.02577 -0.04822

arith.constant14 f2 [64, 1, 7, 32]
000000 cf 29 42 ad 8e 15 78 ad 95 2c 3a 28 3b ad fb 1e
       0.04538 -0.08215 0.001356 -0.08545 0.0716 0.03302 -0.0817 0.006817
000010 42 ad 26 29 71 a9 31 9f e0 2d 4c 26 24 2a cb 24
       -0.08215 0.04022 -0.0425 -0.007023 0.0918 0.0246 0.04797 0.01872
000020 89 a4 a2 2d e3 2d bd 2c f8 ad b9 a9 9b 29 35 1b
       -0.01772 0.088 0.092 0.07404 -0.09326 -0.0447 0.0438 0.00352
000030 4e 91 67 2a a3 a0 00 2c 4d 29 d0 2a d3 2a 04 ae
       -0.0006475 0.05002 -0.009056 0.0625 0.0414 0.05322 0.0533 -0.094
000040 78 2d 1f ad a6 ab 1b 2c f0 9e 04 ae fa a8 49 ab
       0.08545 -0.08 -0.05975 0.06415 -0.006775 -0.094 -0.03888 -0.05692
000050 2a 1f 7d 2c c9 9e 7d 2c 53 27 b1 19 87 ad 87 a8
       0.006996 0.0701 -0.006626 0.0701 0.02861 0.002779 -0.08636 -0.03537
000060 d4 ac b5 27 f4 ad 95 29 c3 1b ab a5 15 a8 6c a9
       -0.07544 0.0301 -0.093 0.0436 0.00379 -0.02214 -0.0319 -0.04236
000070 74 29 3f 2c 29 a5 3e a5 a2 2d b5 a9 96 24 d6 21
       0.0426 0.06635 -0.02016 -0.02048 0.088 -0.0446 0.01791 0.0114
000080 81 a1 44 a8 af 27 37 ac 32 24 fc ab 8c 2b cf 2b
       -0.01075 -0.03333 0.03001 -0.06586 0.01639 -0.06238 0.05896 0.061
000090 b5 ac 83 2a 01 a4 f8 2c 59 ac a7 2c d0 ac 23 2d
       -0.07355 0.05087 -0.01564 0.07764 -0.06793 0.0727 -0.0752 0.08026
0000a0 73 a9 41 a7 94 ac 12 28 e2 a9 e2 28 c1 ac 7b aa
       -0.04257 -0.02834 -0.07153 0.0318 -0.04596 0.03815 -0.0743 -0.05063
0000b0 ad a8 dc 2c 5b 83 a3 ab 6f 2a bb ad 2f a7 0d 29
       -0.03653 0.0759 -5.12e-05 -0.05966 0.05026 -0.08954 -0.02806 0.03946
0000c0 3b ac b0 a1 ca 2c 61 a8 76 9e 5f a7 f3 2a e8 a8
       -0.0661 -0.01111 0.0748 -0.0342 -0.00631 -0.0288 0.0543 -0.03833
0000d0 a8 2a 79 2b ce a0 75 1e 27 25 af 2b c4 a2 e9 2c
       0.052 0.05838 -0.009384 0.006306 0.02013 0.06003 -0.013214 0.0767
0000e0 a0 20 c1 27 32 27 11 25 3f 2d 08 2e 36 aa 35 aa
       0.00903 0.03029 0.0281 0.01979 0.082 0.09424 -0.04852 -0.0485
0000f0 70 2b 79 2c 5b a8 4c a5 c1 2d 35 28 ec a9 77 24
       0.0581 0.0699 -0.03403 -0.02069 0.0899 0.03287 -0.04626 0.01744
000100 b6 22 8a 20 9b aa 5c 2d f2 2d d3 9b 01 2b 2a 2c
       0.01311 0.008865 -0.0516 0.08374 0.0929 -0.00382 0.05472 0.06506
000110 2a 2c 27 27 40 a5 5e 2d 8d 25 6c 26 81 ab 06 1c
       0.06506 0.02794 -0.02051 0.08386 0.02168 0.02509 -0.05862 0.00393
000120 00 ae 89 a4 86 2b 06 2a f9 ac a6 2b 72 2b 6e 2c
       -0.09375 -0.01772 0.05878 0.04706 -0.0777 0.05975 0.05817 0.0692
000130 40 a7 b0 21 30 29 71 18 c6 a1 02 27 fc 2c 09 28
       -0.02832 0.01111 0.04053 0.002169 -0.01128 0.02737 0.0779 0.03152
000140 db ab 07 ac 95 2d 2b 26 49 22 28 ad db 28 24 a8
       -0.06137 -0.0629 0.0872 0.0241 0.012276 -0.08057 0.03793 -0.03235
000150 a8 24 00 ac 21 2b cb 20 c7 2b 0f ac ba aa 5e 22
       0.01819 -0.0625 0.0557 0.00936 0.06076 -0.0634 -0.05255 0.012436
000160 a0 a8 7f 2a 12 23 16 ad 61 25 2c 23 e2 2c 13 25
       -0.03613 0.05075 0.01381 -0.07947 0.02101 0.01401 0.0763 0.01982
000170 0a 2d 1c ac 6d a0 84 a8 ed a6 51 aa 5e a3 c9 26
       0.07874 -0.0642 -0.008644 -0.03528 -0.02705 -0.04935 -0.01439 0.0265
000180 d5 26 76 2d cb 2c 7d 28 b3 ad 0d 20 1c a4 b9 ab
       0.02669 0.0853 0.0749 0.03506 -0.08905 0.00791 -0.01605 -0.06033
000190 d5 a6 21 2d a4 9e 26 28 6d 1d d3 2a 1c a8 59 ad
       -0.02669 0.08014 -0.006485 0.0324 0.0053 0.0533 -0.0321 -0.08356
0001a0 a0 2b 6d a5 7c a1 ca ad 76 29 df 9f 36 1f c9 2b
       0.05957 -0.0212 -0.01071 -0.09045 0.04266 -0.007687 0.007042 0.06082
0001b0 ac 28 20 2d fa a3 8f a6 55 27 2b 2d ad 2c c7 2d
       0.0365 0.0801 -0.01558 -0.02562 0.02864 0.08075 0.07306 0.0903
0001c0 47 27 97 26 73 a7 fc aa a1 ab 4c 21 f1 2b 64 ad
       0.02843 0.02574 -0.0291 -0.05457 -0.0596 0.010345 0.06204 -0.0842
0001d0 94 1e 18 28 ed 2c a2 28 28 29 d1 a2 87 29 74 27
       0.006424 0.03198 0.07697 0.0362 0.04028 -0.01331 0.04318 0.02911
0001e0 b7 2d 59 28 e6 ab 6b a8 19 aa ee 20 16 2c e3 a8
       0.0893 0.03397 -0.0617 -0.03452 -0.04764 0.00963 0.06384 -0.03818
0001f0 5f ad 7f aa 04 28 5b ad 7a ac d3 2c ba a8 ab 2b
       -0.0839 -0.05075 0.03137 -0.0837 -0.06995 0.0754 -0.03693 0.0599

arith.constant15 f2 [128, 1, 7, 64]
000000 34 a8 52 ab 4a a5 47 9d 86 28 1e 2b a4 a4 cb aa
       -0.03284 -0.0572 -0.02066 -0.005154 0.03534 0.0556 -0.01813 -0.05307
000010 86 a4 fc a0 4f 20 f5 2b 83 24 39 2c 39 11 2f 2a
       -0.01767 -0.009735 0.008415 0.06216 0.01762 0.066 0.0006375 0.0483
000020 f1 a2 66 a3 5a 29 95 22 d6 24 f5 a6 2f 1d b8 a8
       -0.01356 -0.01445 0.0418 0.012856 0.01889 -0.02718 0.005062 -0.03687
000030 b8 29 5e ab 99 a7 11 a4 9d 19 5b aa 9e 29 7c a9
       0.04468 -0.05756 -0.02968 -0.01588 0.00274 -0.04965 0.04388 -0.04285
000040 f2 20 e4 20 1c ac eb 2a 96 20 f2 aa 26 2c 77 9c
       0.00966 0.00955 -0.0642 0.05405 0.00896 -0.05426 0.0648 -0.00436
000050 24 2c 67 a9 c5 25 e3 2b 22 ac 87 22 bb a7 44 29
       0.0647 -0.0422 0.02254 0.0616 -0.0646 0.01275 -0.0302 0.04114
000060 44 ac 37 2a e8 27 e9 9c 04 a8 76 ab 36 a2 8d a6
       -0.06665 0.04855 0.03088 -0.004795 -0.03137 -0.0583 -0.01213 -0.02559
000070 46 ac 6f 9c 54 a8 ef 20 21 a7 a3 14 2c a4 f8 2a
       -0.0668 -0.00433 -0.0338 0.009636 -0.02785 0.001132 -0.0163 0.05444
000080 08 19 a5 28 42 28 09 a4 d1 22 25 aa 1b 29 92 28
       0.002457 0.0363 0.03326 -0.01576 0.01331 -0.048 0.0399 0.0357
000090 12 a3 92 2a 1e 29 93 28 ae 1d 1f 2c 3a 29 5a a1
       -0.01381 0.05133 0.03998 0.03574 0.005547 0.0644 0.04083 -0.01045
0000a0 80 26 e6 2a 15 a5 07 2c 95 27 1c 28 a1 a8 0e a9
       0.02539 0.0539 -0.01985 0.0629 0.02962 0.0321 -0.03616 -0.0395
0000b0 21 aa fc a3 c2 aa a6 26 5b a8 15 a8 e9 90 54 a3
       -0.04788 -0.015594 -0.0528 0.02597 -0.03403 -0.0319 -0.0005994 -0.01431
0000c0 bf a8 40 21 09 a3 b1 1f 4d ab be 1e 1a ac e2 a3
       -0.03708 0.010254 -0.01374 0.00751 -0.05704 0.006584 -0.0641 -0.015396
0000d0 49 ab 79 a2 bd 26 98 29 d9 21 0a 14 4d a8 97 ab
       -0.05692 -0.01264 0.02632 0.0437 0.01142 0.000986 -0.0336 -0.0593
0000e0 e6 ab 06 2a f4 1d d4 ab 46 24 59 aa 0d 2a 23 a3
       -0.0617 0.04706 0.005814 -0.06116 0.0167 -0.0496 0.04727 -0.01394
0000f0 d2 a7 84 a8 bd a8 3d 2c 2b 2c 3b 2c 7d 2a 0b 1b
       -0.03055 -0.03528 -0.03702 0.0662 0.0651 0.0661 0.0507 0.003439
000100 58 2b 24 ac 34 2b 28 a6 8c 23 94 20 f1 29 81 a3
       0.05737 -0.0647 0.05627 -0.02405 0.01474 0.00894 0.04642 -0.014656
000110 b1 28 33 22 58 25 ae a1 7e 91 55 ab 7a 1c c7 a6
       0.03665 0.01211 0.02087 -0.01109 -0.0006704 -0.05728 0.00437 -0.02647
000120 eb 20 d6 a9 6a 9e b6 23 b6 ab cb a9 e9 ab c1 25
       0.009605 -0.0456 -0.006264 0.01506 -0.06024 -0.04526 -0.0618 0.02248
000130 0d 23 d4 27 97 ab ea 2b 90 ab 31 19 c4 23 b1 a8
       0.01377 0.03058 -0.0593 0.06183 -0.05908 0.002535 0.01517 -0.03665
000140 93 a9 5a a9 e6 ab c2 28 41 2c aa 1b e1 a9 2b 28
       -0.04355 -0.0418 -0.0617 0.03717 0.06647 0.003742 -0.04593 0.03256
000150 84 ab 2b a8 5a aa 5a 27 ae ab 66 26 5b a9 2f 2a
       -0.05872 -0.03256 -0.04962 0.02872 -0.06 0.025 -0.04184 0.0483
000160 27 26 78 a6 f5 29 25 1f 48 28 a2 21 de 29 34 22
       0.02403 -0.02527 0.04654 0.006977 0.03345 0.011 0.04584 0.012115
000170 60 8e fc 1a 5d 29 f3 2b d9 24 4a a5 1c 98 5b 95
       -0.000389 0.00341 0.0419 0.0621 0.01894 -0.02066 -0.002007 -0.0013075
000180 de a7 cb a8 c2 a5 a5 a9 e0 a8 f0 99 b9 23 d6 1e
       -0.03073 -0.03745 -0.02249 -0.0441 -0.0381 -0.0029 0.01508 0.006676
000190 af 27 15 25 e1 aa 05 ab af 2a 6b 21 c5 2b 41 a4
       0.03001 0.01985 -0.05374 -0.05484 0.05222 0.01058 0.0607 -0.01662
0001a0 a0 a6 0c 2c 6e a7 ae 24 94 a4 1c 26 5d 26 0c a9
       -0.02588 0.06323 -0.02902 0.01828 -0.01788 0.02386 0.02486 -0.03943
0001b0 ce 27 3f a9 6b a1 ab ab 08 2a 9c 2b 81 aa 43 a8
       0.03049 -0.041 -0.01058 -0.0599 0.04712 0.05945 -0.0508 -0.0333
0001c0 a1 25 22 2c 24 a4 a3 a9 f7 20 f9 23 d1 20 92 2b
       0.02199 0.0646 -0.01617 -0.04404 0.0097 0.01557 0.00941 0.05914
0001d0 26 ac 03 a7 e1 a8 8d 24 b8 2b ba ab fd 1c 3d ac
       -0.0648 -0.02739 -0.03812 0.01778 0.0603 -0.06036 0.00487 -0.0662
0001e0 61 2a 48 2a 4c 9e 07 ab 98 a0 06 a9 83 26 00 a8
       0.04984 0.04907 -0.00615 -0.0549 -0.00897 -0.03925 0.02544 -0.03125
0001f0 4a 27 ad 26 e4 26 36 24 de 9f 6a a9 67 28 34 91
       0.02847 0.02608 0.02692 0.01645 -0.007683 -0.0423 0.0344 -0.000635

arith.constant23 f2 [128, 1, 7, 128]
000000 7a 24 0c 29 99 9c d9 2a 0f a3 dd 14 86 a9 be 29
       0.01749 0.03943 -0.00449 0.0535 -0.01379 0.001187 -0.04315 0.04486
000010 76 a4 c3 2a d7 28 88 a8 a1 9e a4 a8 47 aa cc a9
       -0.01743 0.05283 0.0378 -0.0354 -0.006474 -0.03625 -0.04904 -0.0453
000020 03 1f 70 9a 2f a6 97 a8 de 2a 15 a5 fc a9 55 a0
       0.006847 -0.003143 -0.02415 -0.03586 0.05365 -0.01985 -0.04675 -0.00846
000030 4c 27 cf 2a ea a8 0c 25 55 1d 43 27 f2 26 35 2a
       0.0285 0.0532 -0.0384 0.01971 0.005207 0.02837 0.02713 0.0485
000040 0d a8 ce a4 f5 a7 0d 96 78 a8 b9 23 09 a9 bf a9
       -0.03165 -0.01877 -0.03108 -0.001477 -0.0349 0.01508 -0.03934 -0.0449
000050 0a a6 71 a7 51 a4 47 ab 64 a7 ee 1f 30 a8 6d 1c
       -0.02359 -0.02907 -0.01686 -0.05685 -0.02887 0.007744 -0.0327 0.004322
000060 84 1e 87 aa 8d a8 25 25 10 ab 61 25 a3 26 fe a7
       0.006363 -0.051 -0.03555 0.0201 -0.05518 0.02101 0.02592 -0.03122
000070 db 23 63 95 35 22 b6 aa 16 a5 68 a9 04 24 82 2a
       0.01534 -0.001315 0.01212 -0.05243 -0.01987 -0.04224 0.01569 0.05084
000080 4f 29 55 9b 4e 28 41 25 7a a7 17 2a a0 a1 e4 25
       0.04147 -0.00358 0.03363 0.02052 -0.0292 0.04758 -0.01099 0.02301
000090 2f a7 25 28 27 25 f0 a5 53 2a a5 a4 4c 9d af a8
       -0.02806 0.03238 0.02013 -0.0232 0.0494 -0.01814 -0.005173 -0.0366
0000a0 11 2b c1 25 8d a7 1c 24 2a 06 b6 a1 88 a7 85 20
       0.0552 0.02248 -0.0295 0.01605 9.406e-05 -0.011154 -0.02942 0.00883
0000b0 85 a8 cc a2 2a a7 7b aa 30 14 83 28 60 2b 1a a7
       -0.0353 -0.013275 -0.02798 -0.05063 0.001022 0.03525 0.05762 -0.02774
0000c0 00 28 00 a9 c8 a9 a4 a7 ab a9 52 aa d8 2a fc 27
       0.03125 -0.03906 -0.04517 -0.02985 -0.04428 -0.04938 0.05347 0.03119
0000d0 62 26 39 a8 04 ab e0 25 17 a9 93 22 87 a8 c1 aa
       0.02493 -0.033 -0.0548 0.02295 -0.03976 0.01284 -0.03537 -0.05276
0000e0 5b a8 96 2a 06 28 47 2a 5d 28 0d 25 de 9b cb 27
       -0.03403 0.05145 0.03143 0.04904 0.0341 0.01973 -0.003841 0.03044
0000f0 96 2a 3e 2b 46 23 b2 28 61 a8 a7 a2 cf a3 85 20
       0.05145 0.05658 0.014206 0.03668 -0.0342 -0.01299 -0.01525 0.00883
000100 55 97 f7 aa f8 2a bb a7 ea 29 70 a9 ed a6 e6 21
       -0.00179 -0.0544 0.05444 -0.0302 0.0462 -0.04248 -0.02705 0.01152
000110 ed a4 d9 9c 4e a8 ef 28 89 1c 66 28 27 2b 04 20
       -0.01924 -0.004734 -0.03363 0.03854 0.00443 0.03436 0.05588 0.00784
000120 9f aa da 21 87 27 93 a9 71 a8 11 20 43 28 d8 a7
       -0.05173 0.01143 0.0294 -0.04355 -0.0347 0.00794 0.0333 -0.03064
000130 75 a6 db a9 e4 a9 b5 a9 51 1c 70 a6 6e a9 b6 27
       -0.02522 -0.04575 -0.04602 -0.0446 0.004215 -0.02515 -0.04242 0.03012
000140 fc a5 c3 28 f1 2a c2 20 b9 29 64 28 9c 27 32 a8
       -0.02338 0.0372 0.05423 0.00929 0.0447 0.0343 0.02972 -0.03278
000150 77 a9 d6 a8 fb a7 e7 23 f5 a6 83 21 34 29 1a 16
       -0.0427 -0.03778 -0.03117 0.015434 -0.02718 0.010765 0.04065 0.00149
000160 8a 28 85 2a 5b 20 a5 a9 73 25 2a ab 02 1f b3 a9
       0.03546 0.05093 0.00851 -0.0441 0.02129 -0.05597 0.006844 -0.04453
000170 e0 a8 32 a9 10 a7 af a8 78 26 a5 22 62 98 34 a9
       -0.0381 -0.0406 -0.02759 -0.0366 0.02527 0.01298 -0.00214 -0.04065
000180 3a a9 7f a4 2d 29 39 aa 20 a8 16 2a 7b a9 0e 99
       -0.04083 -0.01756 0.04044 -0.0486 -0.03223 0.04755 -0.04282 -0.002468
000190 15 29 fa a1 74 25 b9 28 87 28 6e a7 21 a8 9d a1
       0.0397 -0.01167 0.0213 0.0369 0.03537 -0.02902 -0.03226 -0.01096
0001a0 3e 19 d8 21 f2 25 39 a6 86 aa 2c ab 3b 28 82 27
       0.00256 0.01141 0.02322 -0.0243 -0.05096 -0.05603 0.03305 0.02933
0001b0 3d a5 ee 29 f9 a4 20 2a 7c a1 20 9c c4 9d 4e 20
       -0.02046 0.04633 -0.01942 0.04785 -0.01071 -0.00403 -0.00563 0.00841
0001c0 cf 16 7c 28 0c a8 d0 16 36 28 cd 2a 7f aa fd 9e
       0.001662 0.03503 -0.03162 0.001663 0.0329 0.05313 -0.05075 -0.006824
0001d0 56 2b dd a9 29 a7 fb a8 53 a4 2a 9c 0c 2b 78 a9
       0.0573 -0.0458 -0.02797 -0.0389 -0.01689 -0.004066 0.05505 -0.04272
0001e0 66 29 9c a0 e8 29 8c a8 b4 a8 08 21 1e a9 ea 28
       0.04218 -0.009 0.04614 -0.03552 -0.03674 0.00983 -0.03998 0.0384
0001f0 65 ab 90 a3 f9 24 a5 29 5f 11 11 ab 14 20 7c a4
       -0.05777 -0.01477 0.01942 0.0441 0.0006557 -0.0552 0.007965 -0.01752
