ml/src/main/assets/rawnet2_antispoofing.tflite (tflite, 247592 bytes, 12 tensors)

arith.constant5 f2 [32]
0	0x0000	0.0
1	0x0000	0.0
2	0x0000	0.0
3	0x0000	0.0
4	0x0000	0.0
5	0x0000	0.0
6	0x0000	0.0
7	0x0000	0.0
8	0x0000	0.0
9	0x0000	0.0
10	0x0000	0.0
11	0x0000	0.0
12	0x0000	0.0
13	0x0000	0.0
14	0x0000	0.0
15	0x0000	0.0
16	0x0000	0.0
17	0x0000	0.0
18	0x0000	0.0
19	0x0000	0.0
20	0x0000	0.0
21	0x0000	0.0
22	0x0000	0.0
23	0x0000	0.0
24	0x0000	0.0
25	0x0000	0.0
26	0x0000	0.0
27	0x0000	0.0
28	0x0000	0.0
29	0x0000	0.0
30	0x0000	0.0
31	0x0000	0.0

arith.constant6 f2 [64]
0	0x0000	0.0
1	0x0000	0.0
2	0x0000	0.0
3	0x0000	0.0
4	0x0000	0.0
5	0x0000	0.0
6	0x0000	0.0
7	0x0000	0.0
8	0x0000	0.0
9	0x0000	0.0
10	0x0000	0.0
11	0x0000	0.0
12	0x0000	0.0
13	0x0000	0.0
14	0x0000	0.0
15	0x0000	0.0
16	0x0000	0.0
17	0x0000	0.0
18	0x0000	0.0
19	0x0000	0.0
20	0x0000	0.0
21	0x0000	0.0
22	0x0000	0.0
23	0x0000	0.0
24	0x0000	0.0
25	0x0000	0.0
26	0x0000	0.0
27	0x0000	0.0
28	0x0000	0.0
29	0x0000	0.0
30	0x0000	0.0
31	0x0000	0.0
32	0x0000	0.0
33	0x0000	0.0
34	0x0000	0.0
35	0x0000	0.0
36	0x0000	0.0
37	0x0000	0.0
38	0x0000	0.0
39	0x0000	0.0
40	0x0000	0.0
41	0x0000	0.0
42	0x0000	0.0
43	0x0000	0.0
44	0x0000	0.0
45	0x0000	0.0
46	0x0000	0.0
47	0x0000	0.0
48	0x0000	0.0
49	0x0000	0.0
50	0x0000	0.0
51	0x0000	0.0
52	0x0000	0.0
53	0x0000	0.0
54	0x0000	0.0
55	0x0000	0.0
56	0x0000	0.0
57	0x0000	0.0
58	0x0000	0.0
59	0x0000	0.0
60	0x0000	0.0
61	0x0000	0.0
62	0x0000	0.0
63	0x0000	0.0

arith.constant7 f2 [128]
0	0x0000	0.0
1	0x0000	0.0
2	0x0000	0.0
3	0x0000	0.0
4	0x0000	0.0
5	0x0000	0.0
6	0x0000	0.0
7	0x0000	0.0
8	0x0000	0.0
9	0x0000	0.0
10	0x0000	0.0
11	0x0000	0.0
12	0x0000	0.0
13	0x0000	0.0
14	0x0000	0.0
15	0x0000	0.0
16	0x0000	0.0
17	0x0000	0.0
18	0x0000	0.0
19	0x0000	0.0
20	0x0000	0.0
21	0x0000	0.0
22	0x0000	0.0
23	0x0000	0.0
24	0x0000	0.0
25	0x0000	0.0
26	0x0000	0.0
27	0x0000	0.0
28	0x0000	0.0
29	0x0000	0.0
30	0x0000	0.0
31	0x0000	0.0
32	0x0000	0.0
33	0x0000	0.0
34	0x0000	0.0
35	0x0000	0.0
36	0x0000	0.0
37	0x0000	0.0
38	0x0000	0.0
39	0x0000	0.0
40	0x0000	0.0
41	0x0000	0.0
42	0x0000	0.0
43	0x0000	0.0
44	0x0000	0.0
45	0x0000	0.0
46	0x0000	0.0
47	0x0000	0.0
48	0x0000	0.0
49	0x0000	0.0
50	0x0000	0.0
51	0x0000	0.0
52	0x0000	0.0
53	0x0000	0.0
54	0x0000	0.0
55	0x0000	0.0
56	0x0000	0.0
57	0x0000	0.0
58	0x0000	0.0
59	0x0000	0.0
60	0x0000	0.0
61	0x0000	0.0
62	0x0000	0.0
63	0x0000	0.0
64	0x0000	0.0
65	0x0000	0.0
66	0x0000	0.0
67	0x0000	0.0
68	0x0000	0.0
69	0x0000	0.0
70	0x0000	0.0
71	0x0000	0.0
72	0x0000	0.0
73	0x0000	0.0
74	0x0000	0.0
75	0x0000	0.0
76	0x0000	0.0
77	0x0000	0.0
78	0x0000	0.0
79	0x0000	0.0
80	0x0000	0.0
81	0x0000	0.0
82	0x0000	0.0
83	0x0000	0.0
84	0x0000	0.0
85	0x0000	0.0
86	0x0000	0.0
87	0x0000	0.0
88	0x0000	0.0
89	0x0000	0.0
90	0x0000	0.0
91	0x0000	0.0
92	0x0000	0.0
93	0x0000	0.0
94	0x0000	0.0
95	0x0000	0.0
96	0x0000	0.0
97	0x0000	0.0
98	0x0000	0.0
99	0x0000	0.0
100	0x0000	0.0
101	0x0000	0.0
102	0x0000	0.0
103	0x0000	0.0
104	0x0000	0.0
105	0x0000	0.0
106	0x0000	0.0
107	0x0000	0.0
108	0x0000	0.0
109	0x0000	0.0
110	0x0000	0.0
111	0x0000	0.0
112	0x0000	0.0
113	0x0000	0.0
114	0x0000	0.0
115	0x0000	0.0
116	0x0000	0.0
117	0x0000	0.0
118	0x0000	0.0
119	0x0000	0.0
120	0x0000	0.0
121	0x0000	0.0
122	0x0000	0.0
123	0x0000	0.0
124	0x0000	0.0
125	0x0000	0.0
126	0x0000	0.0
127	0x0000	0.0

arith.constant8 f2 [32]
0	0x3bff	0.9995
1	0x3bff	0.9995
2	0x3bff	0.9995
3	0x3bff	0.9995
4	0x3bff	0.9995
5	0x3bff	0.9995
6	0x3bff	0.9995
7	0x3bff	0.9995
8	0x3bff	0.9995
9	0x3bff	0.9995
10	0x3bff	0.9995
11	0x3bff	0.9995
12	0x3bff	0.9995
13	0x3bff	0.9995
14	0x3bff	0.9995
15	0x3bff	0.9995
16	0x3bff	0.9995
17	0x3bff	0.9995
18	0x3bff	0.9995
19	0x3bff	0.9995
20	0x3bff	0.9995
21	0x3bff	0.9995
22	0x3bff	0.9995
23	0x3bff	0.9995
24	0x3bff	0.9995
25	0x3bff	0.9995
26	0x3bff	0.9995
27	0x3bff	0.9995
28	0x3bff	0.9995
29	0x3bff	0.9995
30	0x3bff	0.9995
31	0x3bff	0.9995

arith.constant9 f2 [64]
0	0x3bff	0.9995
1	0x3bff	0.9995
2	0x3bff	0.9995
3	0x3bff	0.9995
4	0x3bff	0.9995
5	0x3bff	0.9995
6	0x3bff	0.9995
7	0x3bff	0.9995
8	0x3bff	0.9995
9	0x3bff	0.9995
10	0x3bff	0.9995
11	0x3bff	0.9995
12	0x3bff	0.9995
13	0x3bff	0.9995
14	0x3bff	0.9995
15	0x3bff	0.9995
16	0x3bff	0.9995
17	0x3bff	0.9995
18	0x3bff	0.9995
19	0x3bff	0.9995
20	0x3bff	0.9995
21	0x3bff	0.9995
22	0x3bff	0.9995
23	0x3bff	0.9995
24	0x3bff	0.9995
25	0x3bff	0.9995
26	0x3bff	0.9995
27	0x3bff	0.9995
28	0x3bff	0.9995
29	0x3bff	0.9995
30	0x3bff	0.9995
31	0x3bff	0.9995
32	0x3bff	0.9995
33	0x3bff	0.9995
34	0x3bff	0.9995
35	0x3bff	0.9995
36	0x3bff	0.9995
37	0x3bff	0.9995
38	0x3bff	0.9995
39	0x3bff	0.9995
40	0x3bff	0.9995
41	0x3bff	0.9995
42	0x3bff	0.9995
43	0x3bff	0.9995
44	0x3bff	0.9995
45	0x3bff	0.9995
46	0x3bff	0.9995
47	0x3bff	0.9995
48	0x3bff	0.9995
49	0x3bff	0.9995
50	0x3bff	0.9995
51	0x3bff	0.9995
52	0x3bff	0.9995
53	0x3bff	0.9995
54	0x3bff	0.9995
55	0x3bff	0.9995
56	0x3bff	0.9995
57	0x3bff	0.9995
58	0x3bff	0.9995
59	0x3bff	0.9995
60	0x3bff	0.9995
61	0x3bff	0.9995
62	0x3bff	0.9995
63	0x3bff	0.9995

arith.constant10 f2 [128]
0	0x3bff	0.9995
1	0x3bff	0.9995
2	0x3bff	0.9995
3	0x3bff	0.9995
4	0x3bff	0.9995
5	0x3bff	0.9995
6	0x3bff	0.9995
7	0x3bff	0.9995
8	0x3bff	0.9995
9	0x3bff	0.9995
10	0x3bff	0.9995
11	0x3bff	0.9995
12	0x3bff	0.9995
13	0x3bff	0.9995
14	0x3bff	0.9995
15	0x3bff	0.9995
16	0x3bff	0.9995
17	0x3bff	0.9995
18	0x3bff	0.9995
19	0x3bff	0.9995
20	0x3bff	0.9995
21	0x3bff	0.9995
22	0x3bff	0.9995
23	0x3bff	0.9995
24	0x3bff	0.9995
25	0x3bff	0.9995
26	0x3bff	0.9995
27	0x3bff	0.9995
28	0x3bff	0.9995
29	0x3bff	0.9995
30	0x3bff	0.9995
31	0x3bff	0.9995
32	0x3bff	0.9995
33	0x3bff	0.9995
34	0x3bff	0.9995
35	0x3bff	0.9995
36	0x3bff	0.9995
37	0x3bff	0.9995
38	0x3bff	0.9995
39	0x3bff	0.9995
40	0x3bff	0.9995
41	0x3bff	0.9995
42	0x3bff	0.9995
43	0x3bff	0.9995
44	0x3bff	0.9995
45	0x3bff	0.9995
46	0x3bff	0.9995
47	0x3bff	0.9995
48	0x3bff	0.9995
49	0x3bff	0.9995
50	0x3bff	0.9995
51	0x3bff	0.9995
52	0x3bff	0.9995
53	0x3bff	0.9995
54	0x3bff	0.9995
55	0x3bff	0.9995
56	0x3bff	0.9995
57	0x3bff	0.9995
58	0x3bff	0.9995
59	0x3bff	0.9995
60	0x3bff	0.9995
61	0x3bff	0.9995
62	0x3bff	0.9995
63	0x3bff	0.9995
64	0x3bff	0.9995
65	0x3bff	0.9995
66	0x3bff	0.9995
67	0x3bff	0.9995
68	0x3bff	0.9995
69	0x3bff	0.9995
70	0x3bff	0.9995
71	0x3bff	0.9995
72	0x3bff	0.9995
73	0x3bff	0.9995
74	0x3bff	0.9995
75	0x3bff	0.9995
76	0x3bff	0.9995
77	0x3bff	0.9995
78	0x3bff	0.9995
79	0x3bff	0.9995
80	0x3bff	0.9995
81	0x3bff	0.9995
82	0x3bff	0.9995
83	0x3bff	0.9995
84	0x3bff	0.9995
85	0x3bff	0.9995
86	0x3bff	0.9995
87	0x3bff	0.9995
88	0x3bff	0.9995
89	0x3bff	0.9995
90	0x3bff	0.9995
91	0x3bff	0.9995
92	0x3bff	0.9995
93	0x3bff	0.9995
94	0x3bff	0.9995
95	0x3bff	0.9995
96	0x3bff	0.9995
97	0x3bff	0.9995
98	0x3bff	0.9995
99	0x3bff	0.9995
100	0x3bff	0.9995
101	0x3bff	0.9995
102	0x3bff	0.9995
103	0x3bff	0.9995
104	0x3bff	0.9995
105	0x3bff	0.9995
106	0x3bff	0.9995
107	0x3bff	0.9995
108	0x3bff	0.9995
109	0x3bff	0.9995
110	0x3bff	0.9995
111	0x3bff	0.9995
112	0x3bff	0.9995
113	0x3bff	0.9995
114	0x3bff	0.9995
115	0x3bff	0.9995
116	0x3bff	0.9995
117	0x3bff	0.9995
118	0x3bff	0.9995
119	0x3bff	0.9995
120	0x3bff	0.9995
121	0x3bff	0.9995
122	0x3bff	0.9995
123	0x3bff	0.9995
124	0x3bff	0.9995
125	0x3bff	0.9995
126	0x3bff	0.9995
127	0x3bff	0.9995

arith.constant11 f2 [128, 128]
0	0x2a5f	0.04977
1	0x2a04	0.047
2	0x2f82	0.1173
3	0x2a6f	0.05026
4	0x2830	0.0327
5	0x30cb	0.1498
6	0x267b	0.02531
7	0x2e96	0.1029
8	0x30ae	0.1462
9	0x3052	0.135
10	0x30b2	0.1467
11	0xa9fc	-0.04675
12	0x302b	0.1302
13	0x2998	0.0437
14	0xaf58	-0.11475
15	0x2843	0.0333
16	0xb049	-0.1339
17	0xa70b	-0.02751
18	0xa97b	-0.04282
19	0x2e79	0.10114
20	0xae3a	-0.0973
21	0x2ce8	0.07666
22	0xb07b	-0.14
23	0xac21	-0.0645
24	0x2bdd	0.06143
25	0xac88	-0.0708
26	0xac30	-0.0654
27	0xac3b	-0.0661
28	0xb0e6	-0.1531
29	0x2e9c	0.1033
30	0xad0f	-0.07904
31	0xad94	-0.08716
32	0xaee9	-0.108
33	0xabb7	-0.06027
34	0x2c4b	0.0671
35	0x3017	0.1278
36	0x265b	0.02483
37	0x2d3c	0.0818
38	0x26f9	0.02724
39	0x29d0	0.0454
40	0xb059	-0.1359
41	0xb0e0	-0.1523
42	0x1935	0.002542
43	0x27cd	0.03047
44	0x30d5	0.151
45	0x2cdd	0.076
46	0x2f38	0.1128
47	0x21f3	0.01162
48	0x304e	0.1345
49	0xadad	-0.0887
50	0x225b	0.01241
51	0x27fe	0.03122
52	0x2a1d	0.04776
53	0x2efe	0.10925
54	0x2620	0.02393
55	0x2eda	0.10706
56	0x2b41	0.05667
57	0x2f06	0.10974
58	0xaeb0	-0.1045
59	0xb038	-0.1318
60	0xaacf	-0.0532
61	0x9825	-0.002024
62	0x2d99	0.08746
63	0x28f5	0.03873
64	0xb077	-0.1395
65	0x2d5c	0.08374
66	0x3087	0.1415
67	0x2a51	0.04935
68	0xa4dc	-0.01898
69	0x2f90	0.11816
70	0x2d7b	0.08563
71	0x2fec	0.1238
72	0x3052	0.135
73	0xac79	-0.0699
74	0xa522	-0.02005
75	0x2e73	0.10077
76	0xae88	-0.10205
77	0x2d04	0.07837
78	0xb0d0	-0.1504
79	0x2b9c	0.05945
80	0xac5a	-0.068
81	0x2e98	0.103
82	0x27ba	0.03018
83	0xabdb	-0.06137
84	0x2fb8	0.1206
85	0x2b1f	0.05563
86	0xb039	-0.132
87	0x2cda	0.0758
88	0x26ff	0.02733
89	0xaabb	-0.05258
90	0xaea0	-0.1035
91	0x2f7b	0.1169
92	0xa9d6	-0.0456
93	0x2c10	0.0635
94	0x2927	0.04025
95	0xb0c9	-0.1495
96	0x9bb4	-0.003761
97	0x30b2	0.1467
98	0xb005	-0.1256
99	0xa833	-0.0328
100	0xafe8	-0.12354
101	0x2ac0	0.05273
102	0x2468	0.01721
103	0x30a1	0.1447
104	0x2bb0	0.06006
105	0xab1f	-0.05563
106	0x2fc0	0.1211
107	0xa8ca	-0.0374
108	0xa404	-0.01569
109	0xacc0	-0.0742
110	0xb0e2	-0.1526
111	0xb069	-0.1378
112	0x2586	0.02158
113	0xacdb	-0.07587
114	0xb049	-0.1339
115	0x307a	0.1399
116	0x299b	0.0438
117	0x2e72	0.1007
118	0xb0c7	-0.1493
119	0x2e0e	0.0946
120	0xa66b	-0.02507
121	0x2810	0.03174
122	0xaba4	-0.0597
123	0x268c	0.02557
124	0x28de	0.03802
125	0xadf8	-0.09326
126	0x9741	-0.001771
127	0xb090	-0.1426
128	0x9c97	-0.004482
129	0x15a1	0.001374
130	0x259b	0.0219
131	0xa70d	-0.02754
132	0x2d15	0.0794
133	0x2f26	0.1117
134	0x308d	0.1422
135	0xaea2	-0.10364
136	0x21c1	0.01124
137	0xaab6	-0.05243
138	0x2ff5	0.1243
139	0x26c8	0.02649
140	0x30a6	0.1453
141	0xacd0	-0.0752
142	0x2db5	0.0892
143	0xad42	-0.08215
144	0x299d	0.04385
145	0x2708	0.02747
146	0xa96e	-0.04242
147	0xa194	-0.010895
148	0x2e66	0.1
149	0x2c7e	0.0702
150	0x1d19	0.00498
151	0x2ebd	0.1053
152	0xaf2e	-0.1122
153	0xad9d	-0.0877
154	0xac9f	-0.0722
155	0xb05e	-0.1365
156	0x2850	0.0337
157	0x29c0	0.04492
158	0x305e	0.1365
159	0xac64	-0.0686
160	0x3074	0.1392
161	0x2dca	0.09045
162	0x2817	0.03195
163	0x2cef	0.0771
164	0xa539	-0.0204
165	0x3039	0.132
166	0x25df	0.02293
167	0xa771	-0.02907
168	0xad5b	-0.0837
169	0xb00a	-0.1262
170	0xa085	-0.00883
171	0x2c9f	0.0722
172	0x28b7	0.03683
173	0xb058	-0.1357
174	0xb09a	-0.1438
175	0x2b8b	0.05893
176	0xb06e	-0.1384
177	0x2fb3	0.1203
178	0x27f1	0.03102
179	0xa1d8	-0.01141
180	0xaec1	-0.1055
181	0xb013	-0.1273
182	0xb098	-0.1436
183	0xb037	-0.1317
184	0xa8a7	-0.03635
185	0xa607	-0.02354
186	0xac32	-0.06555
187	0x294e	0.04144
188	0x1e81	0.00635
189	0xaf4b	-0.11395
190	0x2d75	0.08527
191	0x2feb	0.1237
192	0xa49a	-0.01797
193	0xaaf1	-0.05423
194	0xaf6d	-0.116
195	0xaf44	-0.1135
196	0xb000	-0.125
197	0x2f9c	0.1189
198	0x2d32	0.0812
199	0x2ecf	0.1064
200	0x2419	0.016
201	0xac94	-0.07153
202	0x2e91	0.1026
203	0x920d	-0.0007386
204	0x3085	0.1412
205	0x2c71	0.0694
206	0xaa9a	-0.05157
207	0x2462	0.01712
208	0xb0ad	-0.1461
209	0xa902	-0.03912
210	0x2c4a	0.067
211	0x25b8	0.02234
212	0xb0cf	-0.1503
213	0xadaf	-0.0888
214	0xa590	-0.02173
215	0x2c25	0.06476
216	0xab99	-0.05936
217	0xa480	-0.01758
218	0xaf5e	-0.1151
219	0x2d86	0.0863
220	0xb048	-0.1338
221	0x9474	-0.001087
222	0x2c2f	0.06537
223	0x2673	0.02519
224	0x2fb7	0.12054
225	0x2c05	0.0628
226	0xaa84	-0.0509
227	0x2e7a	0.1012
228	0xafa0	-0.11914
229	0xae0d	-0.09454
230	0xaed6	-0.1068
231	0x2948	0.04126
232	0x30c5	0.149
233	0x200a	0.00789
234	0xad4c	-0.08276
235	0xb002	-0.1252
236	0xac07	-0.0629
237	0xa914	-0.03967
238	0xa600	-0.02344
239	0xb065	-0.1373
240	0xadcb	-0.0905
241	0xad6e	-0.08484
242	0xad0d	-0.0789
243	0xaf21	-0.1114
244	0xa185	-0.01078
245	0xac8b	-0.071
246	0x286a	0.0345
247	0x3038	0.1318
248	0xb0be	-0.1482
249	0x2e07	0.0942
250	0x992e	-0.00253
251	0x2fd8	0.12256
252	0xac3e	-0.0663
253	0x2235	0.01212
254	0x25ae	0.02219
255	0x95f4	-0.001453

arith.constant12 f2 [1, 128]
0	0x2dae	0.08875
1	0xb2c4	-0.2114
2	0x301d	0.1285
3	0xa6be	-0.02634
4	0xa8c5	-0.03726
5	0xaf54	-0.1145
6	0x2c1a	0.0641
7	0x30ca	0.1497
8	0xb130	-0.1621
9	0x3225	0.192
10	0x2cb1	0.0733
11	0x327d	0.2028
12	0x3170	0.1699
13	0x264c	0.0246
14	0x2c64	0.0686
15	0xb0f8	-0.1553
16	0x303e	0.1326
17	0xb0fb	-0.1556
18	0xac28	-0.06494
19	0x2e5c	0.09937
20	0xb1e8	-0.1846
21	0x2c5c	0.0681
22	0xaf55	-0.11456
23	0xaacf	-0.0532
24	0xb14f	-0.1659
25	0x32a1	0.2072
26	0xb124	-0.1606
27	0xaa2d	-0.04825
28	0xad42	-0.08215
29	0xaeb7	-0.1049
30	0x32e5	0.2155
31	0xb2bf	-0.2108
32	0x3277	0.202
33	0xac77	-0.06976
34	0x2d79	0.0855
35	0xab48	-0.0569
36	0x2c93	0.0715
37	0x2d37	0.0815
38	0x3162	0.1682
39	0x2caf	0.0732
40	0x3107	0.1571
41	0x1fc7	0.007595
42	0xb022	-0.1292
43	0x2eb3	0.1047
44	0x31ae	0.1775
45	0xac2e	-0.0653
46	0x1826	0.002026
47	0xa0d0	-0.0094
48	0xa6ad	-0.02608
49	0xb230	-0.1934
50	0x3286	0.2039
51	0x2f88	0.1177
52	0x2d03	0.0783
53	0x30ce	0.1501
54	0x2c73	0.0695
55	0xb2c5	-0.2115
56	0x3048	0.1338
57	0x2e1d	0.0955
58	0xb187	-0.1727
59	0x289b	0.03598
60	0x2caa	0.0729
61	0x24e2	0.01907
62	0xb190	-0.1738
63	0xa805	-0.0314
64	0x296d	0.0424
65	0xb166	-0.1687
66	0x2ae0	0.0537
67	0xb237	-0.1942
68	0xae97	-0.10297
69	0x3087	0.1415
70	0x30b8	0.1475
71	0x2921	0.04007
72	0x2f80	0.1172
73	0xa571	-0.02126
74	0xad34	-0.0813
75	0xb0fc	-0.1558
76	0xae54	-0.0989
77	0xb25a	-0.1985
78	0x3042	0.133
79	0xac07	-0.0629
80	0xb167	-0.1688
81	0x31d9	0.1827
82	0x2a18	0.0476
83	0x2d24	0.0803
84	0x3218	0.1904
85	0x30a3	0.1449
86	0x2f7b	0.1169
87	0xb061	-0.1368
88	0x325e	0.199
89	0xb14e	-0.1658
90	0xb085	-0.1412
91	0x2da2	0.088
92	0xb2c2	-0.2112
93	0x267e	0.02536
94	0xaa88	-0.05103
95	0x31fd	0.1871
96	0x309c	0.144
97	0x31f3	0.1859
98	0x2e17	0.09515
99	0x2b5b	0.05746
100	0x31e9	0.1847
101	0xb2d7	-0.2137
102	0xb254	-0.1978
103	0x29fc	0.04675
104	0x292b	0.04037
105	0x2a7c	0.05066
106	0x241d	0.01607
107	0x269f	0.02586
108	0xb0cc	-0.1499
109	0xb231	-0.1935
110	0x32a2	0.2073
111	0x9b6f	-0.00363
112	0xaaf0	-0.0542
113	0xb146	-0.1648
114	0x2e42	0.0978
115	0x2625	0.024
116	0x31ca	0.1809
117	0xb075	-0.1393
118	0xb05e	-0.1365
119	0x309b	0.1439
120	0xb099	-0.1437
121	0x288d	0.03555
122	0x2ea9	0.10406
123	0xae2a	-0.0963
124	0xad44	-0.0823
125	0xad72	-0.0851
126	0x3121	0.1603
127	0x306f	0.1385

arith.constant13 f2 [32, 1, 7, 1]
0	0x27a3	0.02983
1	0x2d58	0.0835
2	0xac5e	-0.06824
3	0xabc9	-0.06082
4	0xaddd	-0.0916
5	0xb007	-0.1259
6	0x2d1b	0.0798
7	0x2276	0.01262
8	0xad5a	-0.0836
9	0xa6ef	-0.02708
10	0x2e99	0.1031
11	0xaeb3	-0.1047
12	0x2d11	0.07916
13	0xadb1	-0.0889
14	0xb066	-0.1375
15	0xa883	-0.03525
16	0xac02	-0.0626
17	0xac1b	-0.06415
18	0x2cea	0.0768
19	0x304a	0.134
20	0x2b25	0.05582
21	0x255a	0.0209
22	0xa710	-0.02759
23	0xb0c4	-0.1489
24	0xa97a	-0.0428
25	0xae2d	-0.0965
26	0xab41	-0.05667
27	0xad54	-0.08325
28	0xb041	-0.1329
29	0xa993	-0.04355
30	0x9dda	-0.005714
31	0xa8ee	-0.0385
32	0x30d4	0.1509
33	0xb0b2	-0.1467
34	0xb04b	-0.1342
35	0x306b	0.1381
36	0x2c94	0.07153
37	0x2869	0.03445
38	0x30fa	0.1555
39	0x2ba0	0.05957
40	0x2f28	0.1118
41	0x2d44	0.0823
42	0x28d4	0.03772
43	0xa221	-0.01197
44	0x2cb6	0.0736
45	0xad8e	-0.0868
46	0xaccb	-0.0749
47	0xaa7d	-0.0507
48	0x2a76	0.05048
49	0x2fa3	0.1193
50	0xa56a	-0.02115
51	0x28c5	0.03726
52	0xa8f7	-0.0388
53	0x2a88	0.05103
54	0x9e0d	-0.00591
55	0xb106	-0.157
56	0x2543	0.02055
57	0x1a16	0.002972
58	0xb0db	-0.1517
59	0x2c95	0.0716
60	0x2fcf	0.122
61	0xa83d	-0.0331
62	0xaad1	-0.05325
63	0xb0c8	-0.1494
64	0x2594	0.02179
65	0xae52	-0.09875
66	0x2daf	0.0888
67	0x3008	0.126
68	0xa7ed	-0.03096
69	0x2cb0	0.07324
70	0xaf39	-0.11285
71	0xaaa1	-0.0518
72	0xafc5	-0.1214
73	0x30ce	0.1501
74	0xaf4c	-0.114
75	0x2919	0.03983
76	0x2cac	0.073
77	0x2d29	0.0806
78	0x30ff	0.1561
79	0x298f	0.04343
80	0xad55	-0.0833
81	0xad1e	-0.07996
82	0xaf9f	-0.1191
83	0x2ebb	0.10516
84	0x3020	0.1289
85	0xaeb5	-0.1048
86	0x2f09	0.1099
87	0x26f4	0.02716
88	0xad3f	-0.082
89	0xacbc	-0.074
90	0x2a5d	0.0497
91	0xaecb	-0.10614
92	0x2dbc	0.0896
93	0x2f33	0.1125
94	0xa618	-0.0238
95	0xb0c5	-0.149
96	0xaf6e	-0.1161
97	0xb0ed	-0.1539
98	0xad98	-0.0874
99	0x2c3f	0.06635
100	0x3109	0.1573
101	0xa952	-0.04156
102	0x2eae	0.1044
103	0xb04b	-0.1342
104	0x2c60	0.06836
105	0xafd5	-0.1224
106	0x1cb0	0.004578
107	0x2da1	0.08795
108	0x2eb6	0.10486
109	0x2e74	0.1008
110	0x300c	0.1265
111	0xae6d	-0.1004
112	0x2a71	0.05032
113	0x2dcc	0.0906
114	0x2c30	0.0654
115	0x2348	0.01422
116	0xb04a	-0.134
117	0x0cb2	0.0002866
118	0xaf53	-0.11444
119	0x203d	0.00828
120	0x2c8a	0.0709
121	0x30a1	0.1447
122	0x2fd1	0.12213
123	0x2d03	0.0783
124	0xaf00	-0.1094
125	0x2722	0.02786
126	0x2a14	0.0475
127	0xb0c7	-0.1493
128	0xb06e	-0.1384
129	0xb0e9	-0.1534
130	0x2123	0.01003
131	0xad52	-0.0831
132	0x2c79	0.0699
133	0x2acc	0.0531
134	0x2712	0.02762
135	0x30d9	0.1515
136	0xab44	-0.05676
137	0xa9d5	-0.04556
138	0xabab	-0.0599
139	0xafd1	-0.12213
140	0x2c03	0.0627
141	0x2d97	0.08734
142	0x293f	0.041
143	0xb030	-0.1309
144	0xabf2	-0.06207
145	0xa413	-0.01591
146	0x2444	0.01666
147	0x2c3a	0.06604
148	0xafdc	-0.1228
149	0xa91d	-0.03995
150	0x2fd8	0.12256
151	0x2a61	0.04984
152	0xaaee	-0.05414
153	0x2edc	0.1072
154	0x19eb	0.00289
155	0xb000	-0.125
156	0x2da0	0.0879
157	0x2f18	0.11084
158	0x28c8	0.03735
159	0x2e3b	0.09735
160	0x2856	0.03387
161	0xaefa	-0.109
162	0xa935	-0.04068
163	0x2987	0.04318
164	0x2945	0.04117
165	0x210b	0.00985
166	0xb0b1	-0.1466
167	0xabd1	-0.06107
168	0xaec1	-0.1055
169	0x2fb1	0.1202
170	0xa654	-0.02472
171	0xaf14	-0.1106
172	0x2dab	0.08856
173	0xae67	-0.10004
174	0x2d8b	0.0866
175	0xad38	-0.08154
176	0xafc9	-0.12164
177	0x1ce7	0.004787
178	0xa150	-0.010376
179	0xb022	-0.1292
180	0xac19	-0.064
181	0xa88c	-0.03552
182	0x264b	0.02458
183	0x2458	0.01697
184	0xa0e5	-0.00956
185	0x2b28	0.0559
186	0x2906	0.03925
187	0x0ae0	0.0002098
188	0x3073	0.139
189	0x3004	0.1255
190	0x2ea0	0.1035
191	0x27f1	0.03102
192	0xae54	-0.0989
193	0xb0ca	-0.1497
194	0xac91	-0.07135
195	0xa552	-0.02078
196	0x2ff6	0.1244
197	0x29f9	0.04666
198	0x30da	0.1516
199	0x2f0f	0.1103
200	0xa73f	-0.0283
201	0x2c9d	0.0721
202	0xa660	-0.0249
203	0xa356	-0.01433
204	0xa549	-0.02065
205	0xada7	-0.0883
206	0x3058	0.1357
207	0x311c	0.1597
208	0xac64	-0.0686
209	0x256f	0.02122
210	0x3026	0.1296
211	0xb0ca	-0.1497
212	0x2a36	0.04852
213	0xa2c5	-0.01322
214	0x97be	-0.00189
215	0xa4ba	-0.01846
216	0xa4f6	-0.01938
217	0x2e59	0.0992
218	0x304a	0.134
219	0x2180	0.01074
220	0xa902	-0.03912
221	0xabab	-0.0599
222	0x2fbf	0.12103
223	0xab04	-0.0548

arith.constant14 f2 [64, 1, 5, 32]
0	0x2766	0.0289
1	0xa43f	-0.01659
2	0xa908	-0.0393
3	0x2ae8	0.05396
4	0xaeb9	-0.10504
5	0x2ec4	0.1057
6	0xac71	-0.0694
7	0x2f1d	0.11115
8	0xad21	-0.08014
9	0xad6b	-0.08466
10	0xa3d2	-0.015274
11	0x2ab4	0.05237
12	0x2344	0.01419
13	0xa66a	-0.02505
14	0x2582	0.02151
15	0x2b71	0.05814
16	0x2d48	0.0825
17	0x1a00	0.00293
18	0xace5	-0.0765
19	0xac8b	-0.071
20	0x9d25	-0.005024
21	0x8a50	-0.0001926
22	0xa674	-0.0252
23	0xaa8c	-0.05115
24	0xad05	-0.0784
25	0x2c85	0.0706
26	0x2893	0.03574
27	0x22ee	0.013535
28	0x2641	0.02443
29	0x2e4d	0.09845
30	0x0cd8	0.0002956
31	0x2dbd	0.08966
32	0xa900	-0.03906
33	0x2926	0.04022
34	0xa7e5	-0.03084
35	0xaaf4	-0.05432
36	0x2d38	0.08154
37	0x9dea	-0.005775
38	0x9cfc	-0.004868
39	0xae93	-0.1027
40	0x2ab8	0.0525
41	0xae68	-0.1001
42	0x2bac	0.05994
43	0x2839	0.033
44	0xad36	-0.0814
45	0x1c95	0.004475
46	0x2488	0.0177
47	0x2808	0.0315
48	0xad32	-0.0812
49	0xaecd	-0.10626
50	0xad82	-0.08606
51	0xaa95	-0.05142
52	0xabdf	-0.0615
53	0x2dcf	0.09076
54	0x2afe	0.05463
55	0x2e4b	0.0983
56	0xa37d	-0.014626
57	0x2838	0.03296
58	0x2734	0.02814
59	0xae83	-0.10175
60	0x2def	0.0927
61	0x236d	0.0145
62	0xac87	-0.07074
63	0xad0d	-0.0789
64	0xad4c	-0.08276
65	0xa894	-0.03577
66	0xa420	-0.01611
67	0xaed5	-0.10675
68	0x29b4	0.04456
69	0xa574	-0.0213
70	0x2de2	0.0919
71	0xae09	-0.0943
72	0x2dff	0.0937
73	0xac05	-0.0628
74	0xaf1d	-0.11115
75	0xab0e	-0.0551
76	0x2133	0.010155
77	0x2ce5	0.0765
78	0x29c5	0.04507
79	0x2c4e	0.06726
80	0x2823	0.03232
81	0x1e30	0.006042
82	0x9f1c	-0.006943
83	0x9a71	-0.003145
84	0xae2e	-0.09656
85	0x2ceb	0.07684
86	0xaee7	-0.10785
87	0x2b58	0.05737
88	0xacf9	-0.0777
89	0xabca	-0.06085
90	0xab28	-0.0559
91	0x2da9	0.08844
92	0x24b1	0.01833
93	0xa477	-0.01744
94	0xa89d	-0.03604
95	0xa92d	-0.04044
96	0xa6bc	-0.0263
97	0xaae9	-0.054
98	0xada0	-0.0879
99	0x2a97	0.05148
100	0x12e9	0.0008435
101	0x2ca1	0.0723
102	0xaed2	-0.10657
103	0x2b5a	0.05743
104	0x2c65	0.06866
105	0x2cee	0.077
106	0x1f00	0.006836
107	0xada3	-0.0881
108	0x2d3b	0.0817
109	0x2d01	0.0782
110	0x2e4e	0.0985
111	0x9cf0	-0.00482
112	0x2be9	0.0618
113	0xae3f	-0.0976
114	0x2c3a	0.06604
115	0xae29	-0.09625
116	0x0201	3.06e-05
117	0xaef3	-0.1086
118	0x1904	0.002449
119	0xa894	-0.03577
120	0xad0a	-0.07874
121	0xa8d6	-0.03778
122	0xae4d	-0.09845
123	0x2e59	0.0992
124	0xae76	-0.10095
125	0x2a72	0.05035
126	0xad6a	-0.0846
127	0x2d30	0.08105
128	0x1cba	0.004616
129	0xa22f	-0.01208
130	0xac9c	-0.072
131	0x28ef	0.03854
132	0x2d55	0.0833
133	0xae0c	-0.0945
134	0x2c60	0.06836
135	0xa425	-0.01619
136	0x2639	0.0243
137	0x2a78	0.05054
138	0xa039	-0.00825
139	0xadf9	-0.0933
140	0xae95	-0.10284
141	0x2bed	0.06192
142	0xa7ae	-0.03
143	0x2f12	0.1105
144	0x2cab	0.07294
145	0xa8fd	-0.03897
146	0x2f24	0.1116
147	0xabaa	-0.05988
148	0xae03	-0.09393
149	0x29b2	0.0445
150	0x2f11	0.1104
151	0xa456	-0.01694
152	0xac9a	-0.0719
153	0x2f09	0.1099
154	0xa284	-0.012726
155	0xabda	-0.06134
156	0x2cdc	0.0759
157	0xa840	-0.0332
158	0x2dc4	0.0901
159	0x29ad	0.04434
160	0xadb9	-0.0894
161	0xaced	-0.07697
162	0x2dee	0.09265
163	0x9e76	-0.00631
164	0xa8ce	-0.03754
165	0xa8cf	-0.03757
166	0x2ae9	0.054
167	0x20a1	0.00904
168	0x2e8a	0.1022
169	0xacca	-0.0748
170	0x2961	0.04202
171	0xac36	-0.0658
172	0x2c68	0.06885
173	0xad03	-0.0783
174	0xabfd	-0.0624
175	0xa841	-0.03323
176	0x9dab	-0.005535
177	0x2b79	0.05838
178	0x2699	0.02577
179	0xae68	-0.1001
180	0xab80	-0.0586
181	0xa85b	-0.03403
182	0x21ab	0.01107
183	0xad91	-0.087
184	0xad64	-0.0842
185	0xae56	-0.099
186	0xa624	-0.02399
187	0xa9ca	-0.04523
188	0x2d23	0.08026
189	0x98e7	-0.002394
190	0xac2a	-0.06506
191	0xa2fa	-0.013626
192	0x2316	0.01384
193	0x2681	0.0254
194	0x2721	0.02785
195	0xa8a7	-0.03635
196	0x2dfb	0.09344
197	0x24c1	0.01857
198	0xaa1d	-0.04776
199	0x197b	0.002676
200	0x2bba	0.06036
201	0x2ce1	0.07623
202	0x2515	0.01985
203	0xaedb	-0.1071
204	0x28a1	0.03616
205	0xa676	-0.02524
206	0xab5e	-0.05756
207	0xad11	-0.07916
208	0xa56f	-0.02122
209	0xae54	-0.0989
210	0x2c5e	0.06824
211	0x2557	0.02086
212	0xac3e	-0.0663
213	0xacbf	-0.07416
214	0xade2	-0.0919
215	0xad65	-0.0843
216	0xa002	-0.00783
217	0xabf6	-0.0622
218	0x2b9c	0.05945
219	0xaef6	-0.10876
220	0x2d12	0.0792
221	0xadfb	-0.09344
222	0x2a74	0.0504
223	0xadda	-0.09143
224	0xaf0b	-0.11005
225	0xa2ad	-0.01304
226	0x29e6	0.04608
227	0x2c72	0.06946
228	0xa949	-0.0413
229	0x23cb	0.01522
230	0x2d46	0.0824
231	0x2edd	0.10724
232	0x2d02	0.07825
233	0xae6b	-0.1003
234	0x2b5c	0.0575
235	0xac91	-0.07135
236	0x209b	0.008995
237	0x2dbc	0.0896
238	0x2cd6	0.07556
239	0x28b3	0.0367
240	0x2597	0.02184
241	0x2db5	0.0892
242	0xaa3c	-0.0487
243	0x2e53	0.0988
244	0xad4d	-0.0828
245	0xa4a0	-0.01807
246	0xac3a	-0.06604
247	0x1e4f	0.00616
248	0x2d06	0.0785
249	0xacdf	-0.0761
250	0x2dbf	0.0898
251	0xacef	-0.0771
252	0xa049	-0.00837
253	0x2d2c	0.0808
254	0x9c14	-0.003983
255	0xade4	-0.09204

arith.constant15 f2 [128, 1, 5, 64]
0	0x289d	0.03604
1	0xa85b	-0.03403
2	0xa3b8	-0.015076
3	0xac23	-0.06464
4	0xac27	-0.0649
5	0xa635	-0.02425
6	0x24fc	0.01947
7	0xa034	-0.00821
8	0x2a53	0.0494
9	0x2a79	0.05057
10	0x2064	0.008575
11	0xa3c3	-0.01516
12	0xa24f	-0.01232
13	0x2373	0.01455
14	0x2719	0.02773
15	0x2741	0.02834
16	0x1cb6	0.0046
17	0xa872	-0.03473
18	0x268a	0.02554
19	0xab4b	-0.05698
20	0xabe1	-0.06155
21	0x1e59	0.0062
22	0xa79d	-0.02974
23	0x24aa	0.01822
24	0xa6bf	-0.02635
25	0xa9e6	-0.04608
26	0x1a2c	0.003014
27	0xab4f	-0.0571
28	0x27b1	0.03004
29	0x2543	0.02055
30	0x2cb2	0.07336
31	0x271b	0.02776
32	0xa69f	-0.02586
33	0x9f72	-0.00727
34	0x2d0d	0.0789
35	0xa90c	-0.03943
36	0x2708	0.02747
37	0xa48f	-0.0178
38	0xac9a	-0.0719
39	0xac39	-0.066
40	0xa500	-0.01953
41	0x227b	0.01266
42	0x2080	0.00879
43	0x2c5a	0.068
44	0xab2b	-0.056
45	0xaaf2	-0.05426
46	0x259e	0.02194
47	0xac50	-0.0674
48	0x22c3	0.01321
49	0x22b1	0.01307
50	0xa91d	-0.03995
51	0xa979	-0.04276
52	0xa94c	-0.04138
53	0x291d	0.03995
54	0xa47b	-0.0175
55	0x2602	0.02347
56	0xabf2	-0.06207
57	0xaa47	-0.04904
58	0xacd8	-0.0757
59	0xa474	-0.0174
60	0xa6f9	-0.02724
61	0x2aad	0.05215
62	0x269a	0.02579
63	0x2926	0.04022
64	0xac84	-0.07056
65	0xaa28	-0.0481
66	0x2763	0.02885
67	0x2adb	0.05356
68	0x2c95	0.0716
69	0xa780	-0.0293
70	0xa940	-0.04102
71	0xac60	-0.06836
72	0xacf7	-0.0776
73	0xab84	-0.05872
74	0x2d08	0.0786
75	0x287c	0.03503
76	0x269e	0.02585
77	0xa85c	-0.03406
78	0x1f81	0.007328
79	0x2cd1	0.07526
80	0xac86	-0.0707
81	0xa470	-0.01733
82	0x2815	0.0319
83	0xa323	-0.01394
84	0x2c99	0.07184
85	0xa9f5	-0.04654
86	0xa944	-0.04114
87	0x28fb	0.0389
88	0xa391	-0.01478
89	0xab53	-0.05722
90	0xacdb	-0.07587
91	0x2779	0.02919
92	0xacc8	-0.0747
93	0xa332	-0.01405
94	0x9cea	-0.0048
95	0xa57b	-0.02141
96	0x2c87	0.07074
97	0x1c82	0.004402
98	0x2a4f	0.0493
99	0x2abf	0.0527
100	0xa885	-0.0353
101	0xa3bd	-0.015114
102	0x24bd	0.01851
103	0x2060	0.008545
104	0x2ab2	0.0523
105	0xab89	-0.05887
106	0x29e1	0.04593
107	0x280b	0.0316
108	0x1b17	0.003462
109	0xaba1	-0.0596
110	0x29cf	0.04538
111	0xad09	-0.0787
112	0x171a	0.001734
113	0x29ea	0.0462
114	0x231b	0.01388
115	0x2797	0.02965
116	0x2cf9	0.0777
117	0x2cb3	0.0734
118	0xa829	-0.0325
119	0x2ada	0.05353
120	0x24a5	0.01814
121	0x297f	0.04294
122	0x2921	0.04007
123	0x27d0	0.03052
124	0xa935	-0.04068
125	0xa9cf	-0.04538
126	0xa415	-0.01595
127	0xa0ef	-0.009636
128	0x2743	0.02837
129	0xa91f	-0.04
130	0x24fc	0.01947
131	0x2099	0.00898
132	0x12fc	0.0008526
133	0x2cb2	0.07336
134	0xaacb	-0.05307
135	0x2911	0.03958
136	0x2c9e	0.07214
137	0xaa1c	-0.04773
138	0xa35b	-0.014366
139	0x29b7	0.04465
140	0xacf3	-0.07733
141	0xac2c	-0.0652
142	0x2cbf	0.07416
143	0x2c25	0.06476
144	0xabb8	-0.0603
145	0x2996	0.04364
146	0x14df	0.001189
147	0x9d40	-0.005127
148	0x2688	0.02551
149	0x2693	0.02568
150	0xacb5	-0.07355
151	0x2a5c	0.04968
152	0x2c47	0.06683
153	0xac6c	-0.0691
154	0x1d02	0.00489
155	0x28af	0.0366
156	0xa91f	-0.04
157	0xa8ef	-0.03854
158	0xa91c	-0.03992
159	0x2934	0.04065
160	0xa88c	-0.03552
161	0x2b8c	0.05896
162	0x20d7	0.00945
163	0xa904	-0.03918
164	0xacbf	-0.07416
165	0x2b10	0.05518
166	0x2cc1	0.0743
167	0x2cc9	0.07477
168	0xab5f	-0.0576
169	0xaadf	-0.05368
170	0x2c4b	0.0671
171	0xacef	-0.0771
172	0xa5c0	-0.02246
173	0xab49	-0.05692
174	0xa69c	-0.02582
175	0xa9b0	-0.04443
176	0x2cd3	0.0754
177	0xac65	-0.06866
178	0x241e	0.01608
179	0x22ca	0.01326
180	0x2c06	0.06287
181	0x28d9	0.03787
182	0xa8bc	-0.037
183	0x9e62	-0.006233
184	0x2164	0.01053
185	0xa6d9	-0.02675
186	0x2872	0.03473
187	0x2a45	0.04898
188	0xaa6b	-0.05014
189	0xa695	-0.02571
190	0xacaa	-0.0729
191	0xa938	-0.04077
192	0x0fdf	0.0004804
193	0xa449	-0.01674
194	0x2830	0.0327
195	0x2b1b	0.0555
196	0xa6da	-0.02676
197	0x2457	0.01695
198	0xa9ed	-0.0463
199	0x2546	0.0206
200	0xa4b2	-0.01834
201	0xab5a	-0.05743
202	0x27eb	0.03093
203	0x2c19	0.064
204	0x293c	0.0409
205	0x26d3	0.02666
206	0x28c6	0.0373
207	0xa5e5	-0.02303
208	0xa43e	-0.01657
209	0xace2	-0.0763
210	0xa442	-0.01663
211	0x292f	0.0405
212	0xaa1c	-0.04773
213	0x2376	0.01457
214	0xad0e	-0.079
215	0x281f	0.0322
216	0x21ac	0.01108
217	0xa188	-0.0108
218	0x2c52	0.0675
219	0x9e04	-0.005875
220	0x2855	0.03384
221	0xa5d6	-0.0228
222	0xa095	-0.00895
223	0x2b7f	0.05856
224	0x2b00	0.0547
225	0xacf2	-0.0773
226	0x2bda	0.06134
227	0xac67	-0.0688
228	0x2604	0.0235
229	0xab48	-0.0569
230	0x85c8	-8.82e-05
231	0x2322	0.01393
232	0xab06	-0.05487
233	0x29f2	0.04645
234	0x29fc	0.04675
235	0x2a2c	0.04822
236	0xaa0e	-0.0473
237	0x2c2a	0.06506
238	0x2cc0	0.0742
239	0xacd9	-0.07574
240	0x28c5	0.03726
241	0x199e	0.002743
242	0xab52	-0.0572
243	0xacc0	-0.0742
244	0x2a6d	0.0502
245	0xaa78	-0.05054
246	0xac21	-0.0645
247	0xabc7	-0.06076
248	0xa85e	-0.03412
249	0x2a33	0.04843
250	0xa990	-0.04346
251	0x2024	0.00809
252	0x2811	0.03177
253	0x29bd	0.04483
254	0x0e2e	0.0003772
255	0xa761	-0.02882

arith.constant23 f2 [128, 1, 3, 128]
0	0x2d07	0.07855
1	0x28c0	0.0371
2	0x2c8d	0.0711
3	0x2c8e	0.07117
4	0xad22	-0.0802
5	0x2c0c	0.06323
6	0xaa40	-0.04883
7	0x2cad	0.07306
8	0xabd3	-0.06113
9	0xac5e	-0.06824
10	0xa6ac	-0.02606
11	0xad0b	-0.0788
12	0x2d0c	0.07886
13	0xac07	-0.0629
14	0x15e0	0.001434
15	0x11d3	0.000711
16	0x23dd	0.01536
17	0x2c99	0.07184
18	0x27af	0.03001
19	0xa853	-0.03378
20	0x2c37	0.06586
21	0xa227	-0.01202
22	0xab55	-0.05728
23	0xa7c6	-0.03036
24	0xa24e	-0.012314
25	0xac5f	-0.0683
26	0x282d	0.03262
27	0xa4dd	-0.019
28	0xab77	-0.05832
29	0xa2ea	-0.013504
30	0xa6bd	-0.02632
31	0x1b75	0.003641
32	0xa4c2	-0.01859
33	0x1e0d	0.00591
34	0x2da6	0.08826
35	0xa557	-0.02086
36	0x2abf	0.0527
37	0xa96b	-0.04233
38	0xad4e	-0.0829
39	0xa342	-0.014175
40	0xa9da	-0.04572
41	0xad0c	-0.07886
42	0xaa86	-0.05096
43	0x2c2a	0.06506
44	0xa88f	-0.0356
45	0x2c7e	0.0702
46	0xac92	-0.0714
47	0x2ce6	0.07654
48	0x2b8f	0.05905
49	0x295f	0.04196
50	0xab51	-0.05716
51	0xa66e	-0.02512
52	0x2aa0	0.05176
53	0xad05	-0.0784
54	0x216c	0.01059
55	0x2d2d	0.0809
56	0xa81b	-0.03207
57	0x2a83	0.05087
58	0x2c96	0.07166
59	0x2c87	0.07074
60	0xa117	-0.00994
61	0x29dd	0.0458
62	0x2ae3	0.0538
63	0x22c7	0.01324
64	0xac39	-0.066
65	0x2906	0.03925
66	0x2395	0.01481
67	0x29ce	0.04535
68	0xa207	-0.01177
69	0x2c8c	0.07104
70	0x10a3	0.000566
71	0xa767	-0.02892
72	0x2d7c	0.0857
73	0x2d2e	0.08093
74	0x2a62	0.04987
75	0x27fc	0.03119
76	0xab49	-0.05692
77	0xa184	-0.01077
78	0x2d96	0.0873
79	0xa5db	-0.02287
80	0x2948	0.04126
81	0x9981	-0.002687
82	0xaca5	-0.0726
83	0xaaae	-0.0522
84	0x2c9a	0.0719
85	0xa3c0	-0.01514
86	0xa5ba	-0.02237
87	0xa8ca	-0.0374
88	0xad34	-0.0813
89	0xa2ff	-0.013664
90	0x2b91	0.0591
91	0x2d88	0.0864
92	0xad37	-0.0815
93	0x2915	0.0397
94	0xacff	-0.07806
95	0xab20	-0.05566
96	0x9f15	-0.006916
97	0xada8	-0.0884
98	0x24e4	0.0191
99	0x2d47	0.08246
100	0x2d1a	0.0797
101	0x1d8f	0.00543
102	0xad8f	-0.08685
103	0xa5ee	-0.02316
104	0xa428	-0.01624
105	0x2ae7	0.05392
106	0x21f3	0.01162
107	0x9f44	-0.007095
108	0xaa74	-0.0504
109	0x2a6c	0.05017
110	0xa922	-0.0401
111	0xaad5	-0.05338
112	0xad07	-0.07855
113	0x231d	0.01389
114	0x2b43	0.05673
115	0x2d7a	0.0856
116	0x2c02	0.0626
117	0x2bcf	0.061
118	0xa1ec	-0.011566
119	0xa119	-0.00996
120	0x9e14	-0.005936
121	0x1fd7	0.007656
122	0xab01	-0.05472
123	0xa9a5	-0.0441
124	0xac5c	-0.0681
125	0xa425	-0.01619
126	0xab89	-0.05887
127	0x2c7d	0.0701
128	0x2972	0.04254
129	0x2990	0.04346
130	0xacae	-0.0731
131	0x1e29	0.006016
132	0xabd9	-0.0613
133	0xabb3	-0.06015
134	0xa98f	-0.04343
135	0x2d98	0.0874
136	0x2b8a	0.0589
137	0x219a	0.01094
138	0xa50d	-0.01973
139	0x2c9b	0.07196
140	0x245d	0.01704
141	0x2837	0.03293
142	0x2b08	0.05493
143	0x242a	0.01627
144	0x100b	0.0004935
145	0xa8b8	-0.03687
146	0x29df	0.04587
147	0x2540	0.02051
148	0xa1c8	-0.01129
149	0xace8	-0.07666
150	0xa8a4	-0.03625
151	0xac9d	-0.0721
152	0xaa0e	-0.0473
153	0x1a66	0.003124
154	0x2bbd	0.06046
155	0xa821	-0.03226
156	0xa96f	-0.04245
157	0x2c9e	0.07214
158	0x202d	0.008156
159	0xa99b	-0.0438
160	0x2b74	0.05823
161	0xac6d	-0.06915
162	0x95d7	-0.001426
163	0x2c70	0.06934
164	0xac8a	-0.0709
165	0xa648	-0.02454
166	0x2b88	0.05884
167	0xa50d	-0.01973
168	0x294c	0.04138
169	0x2c42	0.0665
170	0x2801	0.03128
171	0x2d59	0.08356
172	0x2af1	0.05423
173	0x278f	0.02953
174	0x29de	0.04584
175	0x27a3	0.02983
176	0xa6c9	-0.0265
177	0xab47	-0.05685
178	0x26ae	0.0261
179	0x2c1b	0.06415
180	0x2693	0.02568
181	0xac41	-0.06647
182	0xad62	-0.0841
183	0xacc0	-0.0742
184	0xaad8	-0.05347
185	0xa33f	-0.01415
186	0x9c95	-0.004475
187	0x1c5c	0.004257
188	0x279e	0.02975
189	0x2c90	0.0713
190	0x2713	0.02763
191	0xaaae	-0.0522
192	0xabbe	-0.0605
193	0xac4c	-0.06714
194	0xa578	-0.02136
195	0x1ceb	0.004803
196	0x2610	0.02368
197	0x2a50	0.04932
198	0xac36	-0.0658
199	0x20ae	0.00914
200	0x2a8c	0.05115
201	0xac02	-0.0626
202	0xabd5	-0.0612
203	0x2972	0.04254
204	0x255e	0.02097
205	0xa475	-0.01741
206	0xa661	-0.02492
207	0x2cda	0.0758
208	0xaab7	-0.05246
209	0xa8e0	-0.0381
210	0x2ceb	0.07684
211	0xa8ec	-0.03845
212	0xabd8	-0.06128
213	0x2d4a	0.08264
214	0x17c5	0.001897
215	0x2baf	0.06003
216	0xa939	-0.0408
217	0xa09f	-0.009026
218	0x2be3	0.0616
219	0xada1	-0.08795
220	0x2c70	0.06934
221	0x9988	-0.0027
222	0xaa1f	-0.04782
223	0x23fd	0.0156
224	0x1dd0	0.005676
225	0x2c7e	0.0702
226	0x2aad	0.05215
227	0x2b56	0.0573
228	0xa61d	-0.02388
229	0x2402	0.01566
230	0xa84d	-0.0336
231	0x2d0f	0.07904
232	0xab70	-0.0581
233	0x2223	0.011986
234	0xad60	-0.084
235	0x2450	0.01685
236	0xaaa7	-0.05197
237	0x24a4	0.01813
238	0x2d5d	0.0838
239	0x2d07	0.07855
240	0x1c72	0.00434
241	0xa9de	-0.04584
242	0x29e2	0.04596
243	0xaaab	-0.0521
244	0xab52	-0.0572
245	0xacfc	-0.0779
246	0xaaef	-0.05417
247	0x1af0	0.003387
248	0xa8e3	-0.03818
249	0x28db	0.03793
250	0x28de	0.03802
251	0xab3e	-0.05658
252	0xab63	-0.0577
253	0xaad0	-0.05322
254	0xa929	-0.0403
255	0xa408	-0.01575
